{"format": "layers-model", "generatedBy": "keras v2.9.0", "convertedBy": "TensorFlow.js Converter v4.17.0", "modelTopology": {"keras_version": "2.9.0", "backend": "tensorflow", "model_config": {"class_name": "Functional", "config": {"name": "model_10", "layers": [{"class_name": "InputLayer", "config": {"batch_input_shape": [null, null, null, 3], "dtype": "float32", "sparse": false, "ragged": false, "name": "input_11"}, "name": "input_11", "inbound_nodes": []}, {"class_name": "Conv2D", "config": {"name": "conv2d_940", "trainable": true, "dtype": "float32", "filters": 32, "kernel_size": [3, 3], "strides": [2, 2], "padding": "valid", "data_format": "channels_last", "dilation_rate": [1, 1], "groups": 1, "activation": "linear", "use_bias": false, "kernel_initializer": {"class_name": "GlorotUniform", "config": {"seed": null}}, "bias_initializer": {"class_name": "Zeros", "config": {}}, "kernel_regularizer": null, "bias_regularizer": null, "activity_regularizer": null, "kernel_constraint": null, "bias_constraint": null}, "name": "conv2d_940", "inbound_nodes": [[["input_11", 0, 0, {}]]]}, {"class_name": "BatchNormalization", "config": {"name": "batch_normalization_940", "trainable": true, "dtype": "float32", "axis": [3], "momentum": 0.99, "epsilon": 0.001, "center": true, "scale": false, "beta_initializer": {"class_name": "Zeros", "config": {}}, "gamma_initializer": {"class_name": "Ones", "config": {}}, "moving_mean_initializer": {"class_name": "Zeros", "config": {}}, "moving_variance_initializer": {"class_name": "Ones", "config": {}}, "beta_regularizer": null, "gamma_regularizer": null, "beta_constraint": null, "gamma_constraint": null}, "name": "batch_normalization_940", "inbound_nodes": [[["conv2d_940", 0, 0, {}]]]}, {"class_name": "Activation", "config": {"name": "activation_940", "trainable": true, "dtype": "float32", "activation": "relu"}, "name": "activation_940", "inbound_nodes": [[["batch_normalization_940", 0, 0, {}]]]}, {"class_name": "Conv2D", "config": {"name": "conv2d_941", "trainable": true, "dtype": "float32", "filters": 32, "kernel_size": [3, 3], "strides": [1, 1], "padding": "valid", "data_format": "channels_last", "dilation_rate": [1, 1], "groups": 1, "activation": "linear", "use_bias": false, "kernel_initializer": {"class_name": "GlorotUniform", "config": {"seed": null}}, "bias_initializer": {"class_name": "Zeros", "config": {}}, "kernel_regularizer": null, "bias_regularizer": null, "activity_regularizer": null, "kernel_constraint": null, "bias_constraint": null}, "name": "conv2d_941", "inbound_nodes": [[["activation_940", 0, 0, {}]]]}, {"class_name": "BatchNormalization", "config": {"name": "batch_normalization_941", "trainable": true, "dtype": "float32", "axis": [3], "momentum": 0.99, "epsilon": 0.001, "center": true, "scale": false, "beta_initializer": {"class_name": "Zeros", "config": {}}, "gamma_initializer": {"class_name": "Ones", "config": {}}, "moving_mean_initializer": {"class_name": "Zeros", "config": {}}, "moving_variance_initializer": {"class_name": "Ones", "config": {}}, "beta_regularizer": null, "gamma_regularizer": null, "beta_constraint": null, "gamma_constraint": null}, "name": "batch_normalization_941", "inbound_nodes": [[["conv2d_941", 0, 0, {}]]]}, {"class_name": "Activation", "config": {"name": "activation_941", "trainable": true, "dtype": "float32", "activation": "relu"}, "name": "activation_941", "inbound_nodes": [[["batch_normalization_941", 0, 0, {}]]]}, {"class_name": "Conv2D", "config": {"name": "conv2d_942", "trainable": true, "dtype": "float32", "filters": 64, "kernel_size": [3, 3], "strides": [1, 1], "padding": "same", "data_format": "channels_last", "dilation_rate": [1, 1], "groups": 1, "activation": "linear", "use_bias": false, "kernel_initializer": {"class_name": "GlorotUniform", "config": {"seed": null}}, "bias_initializer": {"class_name": "Zeros", "config": {}}, "kernel_regularizer": null, "bias_regularizer": null, "activity_regularizer": null, "kernel_constraint": null, "bias_constraint": null}, "name": "conv2d_942", "inbound_nodes": [[["activation_941", 0, 0, {}]]]}, {"class_name": "BatchNormalization", "config": {"name": "batch_normalization_942", "trainable": true, "dtype": "float32", "axis": [3], "momentum": 0.99, "epsilon": 0.001, "center": true, "scale": false, "beta_initializer": {"class_name": "Zeros", "config": {}}, "gamma_initializer": {"class_name": "Ones", "config": {}}, "moving_mean_initializer": {"class_name": "Zeros", "config": {}}, "moving_variance_initializer": {"class_name": "Ones", "config": {}}, "beta_regularizer": null, "gamma_regularizer": null, "beta_constraint": null, "gamma_constraint": null}, "name": "batch_normalization_942", "inbound_nodes": [[["conv2d_942", 0, 0, {}]]]}, {"class_name": "Activation", "config": {"name": "activation_942", "trainable": true, "dtype": "float32", "activation": "relu"}, "name": "activation_942", "inbound_nodes": [[["batch_normalization_942", 0, 0, {}]]]}, {"class_name": "MaxPooling2D", "config": {"name": "max_pooling2d_40", "trainable": true, "dtype": "float32", "pool_size": [3, 3], "padding": "valid", "strides": [2, 2], "data_format": "channels_last"}, "name": "max_pooling2d_40", "inbound_nodes": [[["activation_942", 0, 0, {}]]]}, {"class_name": "Conv2D", "config": {"name": "conv2d_943", "trainable": true, "dtype": "float32", "filters": 80, "kernel_size": [1, 1], "strides": [1, 1], "padding": "valid", "data_format": "channels_last", "dilation_rate": [1, 1], "groups": 1, "activation": "linear", "use_bias": false, "kernel_initializer": {"class_name": "GlorotUniform", "config": {"seed": null}}, "bias_initializer": {"class_name": "Zeros", "config": {}}, "kernel_regularizer": null, "bias_regularizer": null, "activity_regularizer": null, "kernel_constraint": null, "bias_constraint": null}, "name": "conv2d_943", "inbound_nodes": [[["max_pooling2d_40", 0, 0, {}]]]}, {"class_name": "BatchNormalization", "config": {"name": "batch_normalization_943", "trainable": true, "dtype": "float32", "axis": [3], "momentum": 0.99, "epsilon": 0.001, "center": true, "scale": false, "beta_initializer": {"class_name": "Zeros", "config": {}}, "gamma_initializer": {"class_name": "Ones", "config": {}}, "moving_mean_initializer": {"class_name": "Zeros", "config": {}}, "moving_variance_initializer": {"class_name": "Ones", "config": {}}, "beta_regularizer": null, "gamma_regularizer": null, "beta_constraint": null, "gamma_constraint": null}, "name": "batch_normalization_943", "inbound_nodes": [[["conv2d_943", 0, 0, {}]]]}, {"class_name": "Activation", "config": {"name": "activation_943", "trainable": true, "dtype": "float32", "activation": "relu"}, "name": "activation_943", "inbound_nodes": [[["batch_normalization_943", 0, 0, {}]]]}, {"class_name": "Conv2D", "config": {"name": "conv2d_944", "trainable": true, "dtype": "float32", "filters": 192, "kernel_size": [3, 3], "strides": [1, 1], "padding": "valid", "data_format": "channels_last", "dilation_rate": [1, 1], "groups": 1, "activation": "linear", "use_bias": false, "kernel_initializer": {"class_name": "GlorotUniform", "config": {"seed": null}}, "bias_initializer": {"class_name": "Zeros", "config": {}}, "kernel_regularizer": null, "bias_regularizer": null, "activity_regularizer": null, "kernel_constraint": null, "bias_constraint": null}, "name": "conv2d_944", "inbound_nodes": [[["activation_943", 0, 0, {}]]]}, {"class_name": "BatchNormalization", "config": {"name": "batch_normalization_944", "trainable": true, "dtype": "float32", "axis": [3], "momentum": 0.99, "epsilon": 0.001, "center": true, "scale": false, "beta_initializer": {"class_name": "Zeros", "config": {}}, "gamma_initializer": {"class_name": "Ones", "config": {}}, "moving_mean_initializer": {"class_name": "Zeros", "config": {}}, "moving_variance_initializer": {"class_name": "Ones", "config": {}}, "beta_regularizer": null, "gamma_regularizer": null, "beta_constraint": null, "gamma_constraint": null}, "name": "batch_normalization_944", "inbound_nodes": [[["conv2d_944", 0, 0, {}]]]}, {"class_name": "Activation", "config": {"name": "activation_944", "trainable": true, "dtype": "float32", "activation": "relu"}, "name": "activation_944", "inbound_nodes": [[["batch_normalization_944", 0, 0, {}]]]}, {"class_name": "MaxPooling2D", "config": {"name": "max_pooling2d_41", "trainable": true, "dtype": "float32", "pool_size": [3, 3], "padding": "valid", "strides": [2, 2], "data_format": "channels_last"}, "name": "max_pooling2d_41", "inbound_nodes": [[["activation_944", 0, 0, {}]]]}, {"class_name": "Conv2D", "config": {"name": "conv2d_948", "trainable": true, "dtype": "float32", "filters": 64, "kernel_size": [1, 1], "strides": [1, 1], "padding": "same", "data_format": "channels_last", "dilation_rate": [1, 1], "groups": 1, "activation": "linear", "use_bias": false, "kernel_initializer": {"class_name": "GlorotUniform", "config": {"seed": null}}, "bias_initializer": {"class_name": "Zeros", "config": {}}, "kernel_regularizer": null, "bias_regularizer": null, "activity_regularizer": null, "kernel_constraint": null, "bias_constraint": null}, "name": "conv2d_948", "inbound_nodes": [[["max_pooling2d_41", 0, 0, {}]]]}, {"class_name": "BatchNormalization", "config": {"name": "batch_normalization_948", "trainable": true, "dtype": "float32", "axis": [3], "momentum": 0.99, "epsilon": 0.001, "center": true, "scale": false, "beta_initializer": {"class_name": "Zeros", "config": {}}, "gamma_initializer": {"class_name": "Ones", "config": {}}, "moving_mean_initializer": {"class_name": "Zeros", "config": {}}, "moving_variance_initializer": {"class_name": "Ones", "config": {}}, "beta_regularizer": null, "gamma_regularizer": null, "beta_constraint": null, "gamma_constraint": null}, "name": "batch_normalization_948", "inbound_nodes": [[["conv2d_948", 0, 0, {}]]]}, {"class_name": "Activation", "config": {"name": "activation_948", "trainable": true, "dtype": "float32", "activation": "relu"}, "name": "activation_948", "inbound_nodes": [[["batch_normalization_948", 0, 0, {}]]]}, {"class_name": "Conv2D", "config": {"name": "conv2d_946", "trainable": true, "dtype": "float32", "filters": 48, "kernel_size": [1, 1], "strides": [1, 1], "padding": "same", "data_format": "channels_last", "dilation_rate": [1, 1], "groups": 1, "activation": "linear", "use_bias": false, "kernel_initializer": {"class_name": "GlorotUniform", "config": {"seed": null}}, "bias_initializer": {"class_name": "Zeros", "config": {}}, "kernel_regularizer": null, "bias_regularizer": null, "activity_regularizer": null, "kernel_constraint": null, "bias_constraint": null}, "name": "conv2d_946", "inbound_nodes": [[["max_pooling2d_41", 0, 0, {}]]]}, {"class_name": "Conv2D", "config": {"name": "conv2d_949", "trainable": true, "dtype": "float32", "filters": 96, "kernel_size": [3, 3], "strides": [1, 1], "padding": "same", "data_format": "channels_last", "dilation_rate": [1, 1], "groups": 1, "activation": "linear", "use_bias": false, "kernel_initializer": {"class_name": "GlorotUniform", "config": {"seed": null}}, "bias_initializer": {"class_name": "Zeros", "config": {}}, "kernel_regularizer": null, "bias_regularizer": null, "activity_regularizer": null, "kernel_constraint": null, "bias_constraint": null}, "name": "conv2d_949", "inbound_nodes": [[["activation_948", 0, 0, {}]]]}, {"class_name": "BatchNormalization", "config": {"name": "batch_normalization_946", "trainable": true, "dtype": "float32", "axis": [3], "momentum": 0.99, "epsilon": 0.001, "center": true, "scale": false, "beta_initializer": {"class_name": "Zeros", "config": {}}, "gamma_initializer": {"class_name": "Ones", "config": {}}, "moving_mean_initializer": {"class_name": "Zeros", "config": {}}, "moving_variance_initializer": {"class_name": "Ones", "config": {}}, "beta_regularizer": null, "gamma_regularizer": null, "beta_constraint": null, "gamma_constraint": null}, "name": "batch_normalization_946", "inbound_nodes": [[["conv2d_946", 0, 0, {}]]]}, {"class_name": "BatchNormalization", "config": {"name": "batch_normalization_949", "trainable": true, "dtype": "float32", "axis": [3], "momentum": 0.99, "epsilon": 0.001, "center": true, "scale": false, "beta_initializer": {"class_name": "Zeros", "config": {}}, "gamma_initializer": {"class_name": "Ones", "config": {}}, "moving_mean_initializer": {"class_name": "Zeros", "config": {}}, "moving_variance_initializer": {"class_name": "Ones", "config": {}}, "beta_regularizer": null, "gamma_regularizer": null, "beta_constraint": null, "gamma_constraint": null}, "name": "batch_normalization_949", "inbound_nodes": [[["conv2d_949", 0, 0, {}]]]}, {"class_name": "Activation", "config": {"name": "activation_946", "trainable": true, "dtype": "float32", "activation": "relu"}, "name": "activation_946", "inbound_nodes": [[["batch_normalization_946", 0, 0, {}]]]}, {"class_name": "Activation", "config": {"name": "activation_949", "trainable": true, "dtype": "float32", "activation": "relu"}, "name": "activation_949", "inbound_nodes": [[["batch_normalization_949", 0, 0, {}]]]}, {"class_name": "AveragePooling2D", "config": {"name": "average_pooling2d_90", "trainable": true, "dtype": "float32", "pool_size": [3, 3], "padding": "same", "strides": [1, 1], "data_format": "channels_last"}, "name": "average_pooling2d_90", "inbound_nodes": [[["max_pooling2d_41", 0, 0, {}]]]}, {"class_name": "Conv2D", "config": {"name": "conv2d_945", "trainable": true, "dtype": "float32", "filters": 64, "kernel_size": [1, 1], "strides": [1, 1], "padding": "same", "data_format": "channels_last", "dilation_rate": [1, 1], "groups": 1, "activation": "linear", "use_bias": false, "kernel_initializer": {"class_name": "GlorotUniform", "config": {"seed": null}}, "bias_initializer": {"class_name": "Zeros", "config": {}}, "kernel_regularizer": null, "bias_regularizer": null, "activity_regularizer": null, "kernel_constraint": null, "bias_constraint": null}, "name": "conv2d_945", "inbound_nodes": [[["max_pooling2d_41", 0, 0, {}]]]}, {"class_name": "Conv2D", "config": {"name": "conv2d_947", "trainable": true, "dtype": "float32", "filters": 64, "kernel_size": [5, 5], "strides": [1, 1], "padding": "same", "data_format": "channels_last", "dilation_rate": [1, 1], "groups": 1, "activation": "linear", "use_bias": false, "kernel_initializer": {"class_name": "GlorotUniform", "config": {"seed": null}}, "bias_initializer": {"class_name": "Zeros", "config": {}}, "kernel_regularizer": null, "bias_regularizer": null, "activity_regularizer": null, "kernel_constraint": null, "bias_constraint": null}, "name": "conv2d_947", "inbound_nodes": [[["activation_946", 0, 0, {}]]]}, {"class_name": "Conv2D", "config": {"name": "conv2d_950", "trainable": true, "dtype": "float32", "filters": 96, "kernel_size": [3, 3], "strides": [1, 1], "padding": "same", "data_format": "channels_last", "dilation_rate": [1, 1], "groups": 1, "activation": "linear", "use_bias": false, "kernel_initializer": {"class_name": "GlorotUniform", "config": {"seed": null}}, "bias_initializer": {"class_name": "Zeros", "config": {}}, "kernel_regularizer": null, "bias_regularizer": null, "activity_regularizer": null, "kernel_constraint": null, "bias_constraint": null}, "name": "conv2d_950", "inbound_nodes": [[["activation_949", 0, 0, {}]]]}, {"class_name": "Conv2D", "config": {"name": "conv2d_951", "trainable": true, "dtype": "float32", "filters": 32, "kernel_size": [1, 1], "strides": [1, 1], "padding": "same", "data_format": "channels_last", "dilation_rate": [1, 1], "groups": 1, "activation": "linear", "use_bias": false, "kernel_initializer": {"class_name": "GlorotUniform", "config": {"seed": null}}, "bias_initializer": {"class_name": "Zeros", "config": {}}, "kernel_regularizer": null, "bias_regularizer": null, "activity_regularizer": null, "kernel_constraint": null, "bias_constraint": null}, "name": "conv2d_951", "inbound_nodes": [[["average_pooling2d_90", 0, 0, {}]]]}, {"class_name": "BatchNormalization", "config": {"name": "batch_normalization_945", "trainable": true, "dtype": "float32", "axis": [3], "momentum": 0.99, "epsilon": 0.001, "center": true, "scale": false, "beta_initializer": {"class_name": "Zeros", "config": {}}, "gamma_initializer": {"class_name": "Ones", "config": {}}, "moving_mean_initializer": {"class_name": "Zeros", "config": {}}, "moving_variance_initializer": {"class_name": "Ones", "config": {}}, "beta_regularizer": null, "gamma_regularizer": null, "beta_constraint": null, "gamma_constraint": null}, "name": "batch_normalization_945", "inbound_nodes": [[["conv2d_945", 0, 0, {}]]]}, {"class_name": "BatchNormalization", "config": {"name": "batch_normalization_947", "trainable": true, "dtype": "float32", "axis": [3], "momentum": 0.99, "epsilon": 0.001, "center": true, "scale": false, "beta_initializer": {"class_name": "Zeros", "config": {}}, "gamma_initializer": {"class_name": "Ones", "config": {}}, "moving_mean_initializer": {"class_name": "Zeros", "config": {}}, "moving_variance_initializer": {"class_name": "Ones", "config": {}}, "beta_regularizer": null, "gamma_regularizer": null, "beta_constraint": null, "gamma_constraint": null}, "name": "batch_normalization_947", "inbound_nodes": [[["conv2d_947", 0, 0, {}]]]}, {"class_name": "BatchNormalization", "config": {"name": "batch_normalization_950", "trainable": true, "dtype": "float32", "axis": [3], "momentum": 0.99, "epsilon": 0.001, "center": true, "scale": false, "beta_initializer": {"class_name": "Zeros", "config": {}}, "gamma_initializer": {"class_name": "Ones", "config": {}}, "moving_mean_initializer": {"class_name": "Zeros", "config": {}}, "moving_variance_initializer": {"class_name": "Ones", "config": {}}, "beta_regularizer": null, "gamma_regularizer": null, "beta_constraint": null, "gamma_constraint": null}, "name": "batch_normalization_950", "inbound_nodes": [[["conv2d_950", 0, 0, {}]]]}, {"class_name": "BatchNormalization", "config": {"name": "batch_normalization_951", "trainable": true, "dtype": "float32", "axis": [3], "momentum": 0.99, "epsilon": 0.001, "center": true, "scale": false, "beta_initializer": {"class_name": "Zeros", "config": {}}, "gamma_initializer": {"class_name": "Ones", "config": {}}, "moving_mean_initializer": {"class_name": "Zeros", "config": {}}, "moving_variance_initializer": {"class_name": "Ones", "config": {}}, "beta_regularizer": null, "gamma_regularizer": null, "beta_constraint": null, "gamma_constraint": null}, "name": "batch_normalization_951", "inbound_nodes": [[["conv2d_951", 0, 0, {}]]]}, {"class_name": "Activation", "config": {"name": "activation_945", "trainable": true, "dtype": "float32", "activation": "relu"}, "name": "activation_945", "inbound_nodes": [[["batch_normalization_945", 0, 0, {}]]]}, {"class_name": "Activation", "config": {"name": "activation_947", "trainable": true, "dtype": "float32", "activation": "relu"}, "name": "activation_947", "inbound_nodes": [[["batch_normalization_947", 0, 0, {}]]]}, {"class_name": "Activation", "config": {"name": "activation_950", "trainable": true, "dtype": "float32", "activation": "relu"}, "name": "activation_950", "inbound_nodes": [[["batch_normalization_950", 0, 0, {}]]]}, {"class_name": "Activation", "config": {"name": "activation_951", "trainable": true, "dtype": "float32", "activation": "relu"}, "name": "activation_951", "inbound_nodes": [[["batch_normalization_951", 0, 0, {}]]]}, {"class_name": "Concatenate", "config": {"name": "mixed0", "trainable": true, "dtype": "float32", "axis": 3}, "name": "mixed0", "inbound_nodes": [[["activation_945", 0, 0, {}], ["activation_947", 0, 0, {}], ["activation_950", 0, 0, {}], ["activation_951", 0, 0, {}]]]}, {"class_name": "Conv2D", "config": {"name": "conv2d_955", "trainable": true, "dtype": "float32", "filters": 64, "kernel_size": [1, 1], "strides": [1, 1], "padding": "same", "data_format": "channels_last", "dilation_rate": [1, 1], "groups": 1, "activation": "linear", "use_bias": false, "kernel_initializer": {"class_name": "GlorotUniform", "config": {"seed": null}}, "bias_initializer": {"class_name": "Zeros", "config": {}}, "kernel_regularizer": null, "bias_regularizer": null, "activity_regularizer": null, "kernel_constraint": null, "bias_constraint": null}, "name": "conv2d_955", "inbound_nodes": [[["mixed0", 0, 0, {}]]]}, {"class_name": "BatchNormalization", "config": {"name": "batch_normalization_955", "trainable": true, "dtype": "float32", "axis": [3], "momentum": 0.99, "epsilon": 0.001, "center": true, "scale": false, "beta_initializer": {"class_name": "Zeros", "config": {}}, "gamma_initializer": {"class_name": "Ones", "config": {}}, "moving_mean_initializer": {"class_name": "Zeros", "config": {}}, "moving_variance_initializer": {"class_name": "Ones", "config": {}}, "beta_regularizer": null, "gamma_regularizer": null, "beta_constraint": null, "gamma_constraint": null}, "name": "batch_normalization_955", "inbound_nodes": [[["conv2d_955", 0, 0, {}]]]}, {"class_name": "Activation", "config": {"name": "activation_955", "trainable": true, "dtype": "float32", "activation": "relu"}, "name": "activation_955", "inbound_nodes": [[["batch_normalization_955", 0, 0, {}]]]}, {"class_name": "Conv2D", "config": {"name": "conv2d_953", "trainable": true, "dtype": "float32", "filters": 48, "kernel_size": [1, 1], "strides": [1, 1], "padding": "same", "data_format": "channels_last", "dilation_rate": [1, 1], "groups": 1, "activation": "linear", "use_bias": false, "kernel_initializer": {"class_name": "GlorotUniform", "config": {"seed": null}}, "bias_initializer": {"class_name": "Zeros", "config": {}}, "kernel_regularizer": null, "bias_regularizer": null, "activity_regularizer": null, "kernel_constraint": null, "bias_constraint": null}, "name": "conv2d_953", "inbound_nodes": [[["mixed0", 0, 0, {}]]]}, {"class_name": "Conv2D", "config": {"name": "conv2d_956", "trainable": true, "dtype": "float32", "filters": 96, "kernel_size": [3, 3], "strides": [1, 1], "padding": "same", "data_format": "channels_last", "dilation_rate": [1, 1], "groups": 1, "activation": "linear", "use_bias": false, "kernel_initializer": {"class_name": "GlorotUniform", "config": {"seed": null}}, "bias_initializer": {"class_name": "Zeros", "config": {}}, "kernel_regularizer": null, "bias_regularizer": null, "activity_regularizer": null, "kernel_constraint": null, "bias_constraint": null}, "name": "conv2d_956", "inbound_nodes": [[["activation_955", 0, 0, {}]]]}, {"class_name": "BatchNormalization", "config": {"name": "batch_normalization_953", "trainable": true, "dtype": "float32", "axis": [3], "momentum": 0.99, "epsilon": 0.001, "center": true, "scale": false, "beta_initializer": {"class_name": "Zeros", "config": {}}, "gamma_initializer": {"class_name": "Ones", "config": {}}, "moving_mean_initializer": {"class_name": "Zeros", "config": {}}, "moving_variance_initializer": {"class_name": "Ones", "config": {}}, "beta_regularizer": null, "gamma_regularizer": null, "beta_constraint": null, "gamma_constraint": null}, "name": "batch_normalization_953", "inbound_nodes": [[["conv2d_953", 0, 0, {}]]]}, {"class_name": "BatchNormalization", "config": {"name": "batch_normalization_956", "trainable": true, "dtype": "float32", "axis": [3], "momentum": 0.99, "epsilon": 0.001, "center": true, "scale": false, "beta_initializer": {"class_name": "Zeros", "config": {}}, "gamma_initializer": {"class_name": "Ones", "config": {}}, "moving_mean_initializer": {"class_name": "Zeros", "config": {}}, "moving_variance_initializer": {"class_name": "Ones", "config": {}}, "beta_regularizer": null, "gamma_regularizer": null, "beta_constraint": null, "gamma_constraint": null}, "name": "batch_normalization_956", "inbound_nodes": [[["conv2d_956", 0, 0, {}]]]}, {"class_name": "Activation", "config": {"name": "activation_953", "trainable": true, "dtype": "float32", "activation": "relu"}, "name": "activation_953", "inbound_nodes": [[["batch_normalization_953", 0, 0, {}]]]}, {"class_name": "Activation", "config": {"name": "activation_956", "trainable": true, "dtype": "float32", "activation": "relu"}, "name": "activation_956", "inbound_nodes": [[["batch_normalization_956", 0, 0, {}]]]}, {"class_name": "AveragePooling2D", "config": {"name": "average_pooling2d_91", "trainable": true, "dtype": "float32", "pool_size": [3, 3], "padding": "same", "strides": [1, 1], "data_format": "channels_last"}, "name": "average_pooling2d_91", "inbound_nodes": [[["mixed0", 0, 0, {}]]]}, {"class_name": "Conv2D", "config": {"name": "conv2d_952", "trainable": true, "dtype": "float32", "filters": 64, "kernel_size": [1, 1], "strides": [1, 1], "padding": "same", "data_format": "channels_last", "dilation_rate": [1, 1], "groups": 1, "activation": "linear", "use_bias": false, "kernel_initializer": {"class_name": "GlorotUniform", "config": {"seed": null}}, "bias_initializer": {"class_name": "Zeros", "config": {}}, "kernel_regularizer": null, "bias_regularizer": null, "activity_regularizer": null, "kernel_constraint": null, "bias_constraint": null}, "name": "conv2d_952", "inbound_nodes": [[["mixed0", 0, 0, {}]]]}, {"class_name": "Conv2D", "config": {"name": "conv2d_954", "trainable": true, "dtype": "float32", "filters": 64, "kernel_size": [5, 5], "strides": [1, 1], "padding": "same", "data_format": "channels_last", "dilation_rate": [1, 1], "groups": 1, "activation": "linear", "use_bias": false, "kernel_initializer": {"class_name": "GlorotUniform", "config": {"seed": null}}, "bias_initializer": {"class_name": "Zeros", "config": {}}, "kernel_regularizer": null, "bias_regularizer": null, "activity_regularizer": null, "kernel_constraint": null, "bias_constraint": null}, "name": "conv2d_954", "inbound_nodes": [[["activation_953", 0, 0, {}]]]}, {"class_name": "Conv2D", "config": {"name": "conv2d_957", "trainable": true, "dtype": "float32", "filters": 96, "kernel_size": [3, 3], "strides": [1, 1], "padding": "same", "data_format": "channels_last", "dilation_rate": [1, 1], "groups": 1, "activation": "linear", "use_bias": false, "kernel_initializer": {"class_name": "GlorotUniform", "config": {"seed": null}}, "bias_initializer": {"class_name": "Zeros", "config": {}}, "kernel_regularizer": null, "bias_regularizer": null, "activity_regularizer": null, "kernel_constraint": null, "bias_constraint": null}, "name": "conv2d_957", "inbound_nodes": [[["activation_956", 0, 0, {}]]]}, {"class_name": "Conv2D", "config": {"name": "conv2d_958", "trainable": true, "dtype": "float32", "filters": 64, "kernel_size": [1, 1], "strides": [1, 1], "padding": "same", "data_format": "channels_last", "dilation_rate": [1, 1], "groups": 1, "activation": "linear", "use_bias": false, "kernel_initializer": {"class_name": "GlorotUniform", "config": {"seed": null}}, "bias_initializer": {"class_name": "Zeros", "config": {}}, "kernel_regularizer": null, "bias_regularizer": null, "activity_regularizer": null, "kernel_constraint": null, "bias_constraint": null}, "name": "conv2d_958", "inbound_nodes": [[["average_pooling2d_91", 0, 0, {}]]]}, {"class_name": "BatchNormalization", "config": {"name": "batch_normalization_952", "trainable": true, "dtype": "float32", "axis": [3], "momentum": 0.99, "epsilon": 0.001, "center": true, "scale": false, "beta_initializer": {"class_name": "Zeros", "config": {}}, "gamma_initializer": {"class_name": "Ones", "config": {}}, "moving_mean_initializer": {"class_name": "Zeros", "config": {}}, "moving_variance_initializer": {"class_name": "Ones", "config": {}}, "beta_regularizer": null, "gamma_regularizer": null, "beta_constraint": null, "gamma_constraint": null}, "name": "batch_normalization_952", "inbound_nodes": [[["conv2d_952", 0, 0, {}]]]}, {"class_name": "BatchNormalization", "config": {"name": "batch_normalization_954", "trainable": true, "dtype": "float32", "axis": [3], "momentum": 0.99, "epsilon": 0.001, "center": true, "scale": false, "beta_initializer": {"class_name": "Zeros", "config": {}}, "gamma_initializer": {"class_name": "Ones", "config": {}}, "moving_mean_initializer": {"class_name": "Zeros", "config": {}}, "moving_variance_initializer": {"class_name": "Ones", "config": {}}, "beta_regularizer": null, "gamma_regularizer": null, "beta_constraint": null, "gamma_constraint": null}, "name": "batch_normalization_954", "inbound_nodes": [[["conv2d_954", 0, 0, {}]]]}, {"class_name": "BatchNormalization", "config": {"name": "batch_normalization_957", "trainable": true, "dtype": "float32", "axis": [3], "momentum": 0.99, "epsilon": 0.001, "center": true, "scale": false, "beta_initializer": {"class_name": "Zeros", "config": {}}, "gamma_initializer": {"class_name": "Ones", "config": {}}, "moving_mean_initializer": {"class_name": "Zeros", "config": {}}, "moving_variance_initializer": {"class_name": "Ones", "config": {}}, "beta_regularizer": null, "gamma_regularizer": null, "beta_constraint": null, "gamma_constraint": null}, "name": "batch_normalization_957", "inbound_nodes": [[["conv2d_957", 0, 0, {}]]]}, {"class_name": "BatchNormalization", "config": {"name": "batch_normalization_958", "trainable": true, "dtype": "float32", "axis": [3], "momentum": 0.99, "epsilon": 0.001, "center": true, "scale": false, "beta_initializer": {"class_name": "Zeros", "config": {}}, "gamma_initializer": {"class_name": "Ones", "config": {}}, "moving_mean_initializer": {"class_name": "Zeros", "config": {}}, "moving_variance_initializer": {"class_name": "Ones", "config": {}}, "beta_regularizer": null, "gamma_regularizer": null, "beta_constraint": null, "gamma_constraint": null}, "name": "batch_normalization_958", "inbound_nodes": [[["conv2d_958", 0, 0, {}]]]}, {"class_name": "Activation", "config": {"name": "activation_952", "trainable": true, "dtype": "float32", "activation": "relu"}, "name": "activation_952", "inbound_nodes": [[["batch_normalization_952", 0, 0, {}]]]}, {"class_name": "Activation", "config": {"name": "activation_954", "trainable": true, "dtype": "float32", "activation": "relu"}, "name": "activation_954", "inbound_nodes": [[["batch_normalization_954", 0, 0, {}]]]}, {"class_name": "Activation", "config": {"name": "activation_957", "trainable": true, "dtype": "float32", "activation": "relu"}, "name": "activation_957", "inbound_nodes": [[["batch_normalization_957", 0, 0, {}]]]}, {"class_name": "Activation", "config": {"name": "activation_958", "trainable": true, "dtype": "float32", "activation": "relu"}, "name": "activation_958", "inbound_nodes": [[["batch_normalization_958", 0, 0, {}]]]}, {"class_name": "Concatenate", "config": {"name": "mixed1", "trainable": true, "dtype": "float32", "axis": 3}, "name": "mixed1", "inbound_nodes": [[["activation_952", 0, 0, {}], ["activation_954", 0, 0, {}], ["activation_957", 0, 0, {}], ["activation_958", 0, 0, {}]]]}, {"class_name": "Conv2D", "config": {"name": "conv2d_962", "trainable": true, "dtype": "float32", "filters": 64, "kernel_size": [1, 1], "strides": [1, 1], "padding": "same", "data_format": "channels_last", "dilation_rate": [1, 1], "groups": 1, "activation": "linear", "use_bias": false, "kernel_initializer": {"class_name": "GlorotUniform", "config": {"seed": null}}, "bias_initializer": {"class_name": "Zeros", "config": {}}, "kernel_regularizer": null, "bias_regularizer": null, "activity_regularizer": null, "kernel_constraint": null, "bias_constraint": null}, "name": "conv2d_962", "inbound_nodes": [[["mixed1", 0, 0, {}]]]}, {"class_name": "BatchNormalization", "config": {"name": "batch_normalization_962", "trainable": true, "dtype": "float32", "axis": [3], "momentum": 0.99, "epsilon": 0.001, "center": true, "scale": false, "beta_initializer": {"class_name": "Zeros", "config": {}}, "gamma_initializer": {"class_name": "Ones", "config": {}}, "moving_mean_initializer": {"class_name": "Zeros", "config": {}}, "moving_variance_initializer": {"class_name": "Ones", "config": {}}, "beta_regularizer": null, "gamma_regularizer": null, "beta_constraint": null, "gamma_constraint": null}, "name": "batch_normalization_962", "inbound_nodes": [[["conv2d_962", 0, 0, {}]]]}, {"class_name": "Activation", "config": {"name": "activation_962", "trainable": true, "dtype": "float32", "activation": "relu"}, "name": "activation_962", "inbound_nodes": [[["batch_normalization_962", 0, 0, {}]]]}, {"class_name": "Conv2D", "config": {"name": "conv2d_960", "trainable": true, "dtype": "float32", "filters": 48, "kernel_size": [1, 1], "strides": [1, 1], "padding": "same", "data_format": "channels_last", "dilation_rate": [1, 1], "groups": 1, "activation": "linear", "use_bias": false, "kernel_initializer": {"class_name": "GlorotUniform", "config": {"seed": null}}, "bias_initializer": {"class_name": "Zeros", "config": {}}, "kernel_regularizer": null, "bias_regularizer": null, "activity_regularizer": null, "kernel_constraint": null, "bias_constraint": null}, "name": "conv2d_960", "inbound_nodes": [[["mixed1", 0, 0, {}]]]}, {"class_name": "Conv2D", "config": {"name": "conv2d_963", "trainable": true, "dtype": "float32", "filters": 96, "kernel_size": [3, 3], "strides": [1, 1], "padding": "same", "data_format": "channels_last", "dilation_rate": [1, 1], "groups": 1, "activation": "linear", "use_bias": false, "kernel_initializer": {"class_name": "GlorotUniform", "config": {"seed": null}}, "bias_initializer": {"class_name": "Zeros", "config": {}}, "kernel_regularizer": null, "bias_regularizer": null, "activity_regularizer": null, "kernel_constraint": null, "bias_constraint": null}, "name": "conv2d_963", "inbound_nodes": [[["activation_962", 0, 0, {}]]]}, {"class_name": "BatchNormalization", "config": {"name": "batch_normalization_960", "trainable": true, "dtype": "float32", "axis": [3], "momentum": 0.99, "epsilon": 0.001, "center": true, "scale": false, "beta_initializer": {"class_name": "Zeros", "config": {}}, "gamma_initializer": {"class_name": "Ones", "config": {}}, "moving_mean_initializer": {"class_name": "Zeros", "config": {}}, "moving_variance_initializer": {"class_name": "Ones", "config": {}}, "beta_regularizer": null, "gamma_regularizer": null, "beta_constraint": null, "gamma_constraint": null}, "name": "batch_normalization_960", "inbound_nodes": [[["conv2d_960", 0, 0, {}]]]}, {"class_name": "BatchNormalization", "config": {"name": "batch_normalization_963", "trainable": true, "dtype": "float32", "axis": [3], "momentum": 0.99, "epsilon": 0.001, "center": true, "scale": false, "beta_initializer": {"class_name": "Zeros", "config": {}}, "gamma_initializer": {"class_name": "Ones", "config": {}}, "moving_mean_initializer": {"class_name": "Zeros", "config": {}}, "moving_variance_initializer": {"class_name": "Ones", "config": {}}, "beta_regularizer": null, "gamma_regularizer": null, "beta_constraint": null, "gamma_constraint": null}, "name": "batch_normalization_963", "inbound_nodes": [[["conv2d_963", 0, 0, {}]]]}, {"class_name": "Activation", "config": {"name": "activation_960", "trainable": true, "dtype": "float32", "activation": "relu"}, "name": "activation_960", "inbound_nodes": [[["batch_normalization_960", 0, 0, {}]]]}, {"class_name": "Activation", "config": {"name": "activation_963", "trainable": true, "dtype": "float32", "activation": "relu"}, "name": "activation_963", "inbound_nodes": [[["batch_normalization_963", 0, 0, {}]]]}, {"class_name": "AveragePooling2D", "config": {"name": "average_pooling2d_92", "trainable": true, "dtype": "float32", "pool_size": [3, 3], "padding": "same", "strides": [1, 1], "data_format": "channels_last"}, "name": "average_pooling2d_92", "inbound_nodes": [[["mixed1", 0, 0, {}]]]}, {"class_name": "Conv2D", "config": {"name": "conv2d_959", "trainable": true, "dtype": "float32", "filters": 64, "kernel_size": [1, 1], "strides": [1, 1], "padding": "same", "data_format": "channels_last", "dilation_rate": [1, 1], "groups": 1, "activation": "linear", "use_bias": false, "kernel_initializer": {"class_name": "GlorotUniform", "config": {"seed": null}}, "bias_initializer": {"class_name": "Zeros", "config": {}}, "kernel_regularizer": null, "bias_regularizer": null, "activity_regularizer": null, "kernel_constraint": null, "bias_constraint": null}, "name": "conv2d_959", "inbound_nodes": [[["mixed1", 0, 0, {}]]]}, {"class_name": "Conv2D", "config": {"name": "conv2d_961", "trainable": true, "dtype": "float32", "filters": 64, "kernel_size": [5, 5], "strides": [1, 1], "padding": "same", "data_format": "channels_last", "dilation_rate": [1, 1], "groups": 1, "activation": "linear", "use_bias": false, "kernel_initializer": {"class_name": "GlorotUniform", "config": {"seed": null}}, "bias_initializer": {"class_name": "Zeros", "config": {}}, "kernel_regularizer": null, "bias_regularizer": null, "activity_regularizer": null, "kernel_constraint": null, "bias_constraint": null}, "name": "conv2d_961", "inbound_nodes": [[["activation_960", 0, 0, {}]]]}, {"class_name": "Conv2D", "config": {"name": "conv2d_964", "trainable": true, "dtype": "float32", "filters": 96, "kernel_size": [3, 3], "strides": [1, 1], "padding": "same", "data_format": "channels_last", "dilation_rate": [1, 1], "groups": 1, "activation": "linear", "use_bias": false, "kernel_initializer": {"class_name": "GlorotUniform", "config": {"seed": null}}, "bias_initializer": {"class_name": "Zeros", "config": {}}, "kernel_regularizer": null, "bias_regularizer": null, "activity_regularizer": null, "kernel_constraint": null, "bias_constraint": null}, "name": "conv2d_964", "inbound_nodes": [[["activation_963", 0, 0, {}]]]}, {"class_name": "Conv2D", "config": {"name": "conv2d_965", "trainable": true, "dtype": "float32", "filters": 64, "kernel_size": [1, 1], "strides": [1, 1], "padding": "same", "data_format": "channels_last", "dilation_rate": [1, 1], "groups": 1, "activation": "linear", "use_bias": false, "kernel_initializer": {"class_name": "GlorotUniform", "config": {"seed": null}}, "bias_initializer": {"class_name": "Zeros", "config": {}}, "kernel_regularizer": null, "bias_regularizer": null, "activity_regularizer": null, "kernel_constraint": null, "bias_constraint": null}, "name": "conv2d_965", "inbound_nodes": [[["average_pooling2d_92", 0, 0, {}]]]}, {"class_name": "BatchNormalization", "config": {"name": "batch_normalization_959", "trainable": true, "dtype": "float32", "axis": [3], "momentum": 0.99, "epsilon": 0.001, "center": true, "scale": false, "beta_initializer": {"class_name": "Zeros", "config": {}}, "gamma_initializer": {"class_name": "Ones", "config": {}}, "moving_mean_initializer": {"class_name": "Zeros", "config": {}}, "moving_variance_initializer": {"class_name": "Ones", "config": {}}, "beta_regularizer": null, "gamma_regularizer": null, "beta_constraint": null, "gamma_constraint": null}, "name": "batch_normalization_959", "inbound_nodes": [[["conv2d_959", 0, 0, {}]]]}, {"class_name": "BatchNormalization", "config": {"name": "batch_normalization_961", "trainable": true, "dtype": "float32", "axis": [3], "momentum": 0.99, "epsilon": 0.001, "center": true, "scale": false, "beta_initializer": {"class_name": "Zeros", "config": {}}, "gamma_initializer": {"class_name": "Ones", "config": {}}, "moving_mean_initializer": {"class_name": "Zeros", "config": {}}, "moving_variance_initializer": {"class_name": "Ones", "config": {}}, "beta_regularizer": null, "gamma_regularizer": null, "beta_constraint": null, "gamma_constraint": null}, "name": "batch_normalization_961", "inbound_nodes": [[["conv2d_961", 0, 0, {}]]]}, {"class_name": "BatchNormalization", "config": {"name": "batch_normalization_964", "trainable": true, "dtype": "float32", "axis": [3], "momentum": 0.99, "epsilon": 0.001, "center": true, "scale": false, "beta_initializer": {"class_name": "Zeros", "config": {}}, "gamma_initializer": {"class_name": "Ones", "config": {}}, "moving_mean_initializer": {"class_name": "Zeros", "config": {}}, "moving_variance_initializer": {"class_name": "Ones", "config": {}}, "beta_regularizer": null, "gamma_regularizer": null, "beta_constraint": null, "gamma_constraint": null}, "name": "batch_normalization_964", "inbound_nodes": [[["conv2d_964", 0, 0, {}]]]}, {"class_name": "BatchNormalization", "config": {"name": "batch_normalization_965", "trainable": true, "dtype": "float32", "axis": [3], "momentum": 0.99, "epsilon": 0.001, "center": true, "scale": false, "beta_initializer": {"class_name": "Zeros", "config": {}}, "gamma_initializer": {"class_name": "Ones", "config": {}}, "moving_mean_initializer": {"class_name": "Zeros", "config": {}}, "moving_variance_initializer": {"class_name": "Ones", "config": {}}, "beta_regularizer": null, "gamma_regularizer": null, "beta_constraint": null, "gamma_constraint": null}, "name": "batch_normalization_965", "inbound_nodes": [[["conv2d_965", 0, 0, {}]]]}, {"class_name": "Activation", "config": {"name": "activation_959", "trainable": true, "dtype": "float32", "activation": "relu"}, "name": "activation_959", "inbound_nodes": [[["batch_normalization_959", 0, 0, {}]]]}, {"class_name": "Activation", "config": {"name": "activation_961", "trainable": true, "dtype": "float32", "activation": "relu"}, "name": "activation_961", "inbound_nodes": [[["batch_normalization_961", 0, 0, {}]]]}, {"class_name": "Activation", "config": {"name": "activation_964", "trainable": true, "dtype": "float32", "activation": "relu"}, "name": "activation_964", "inbound_nodes": [[["batch_normalization_964", 0, 0, {}]]]}, {"class_name": "Activation", "config": {"name": "activation_965", "trainable": true, "dtype": "float32", "activation": "relu"}, "name": "activation_965", "inbound_nodes": [[["batch_normalization_965", 0, 0, {}]]]}, {"class_name": "Concatenate", "config": {"name": "mixed2", "trainable": true, "dtype": "float32", "axis": 3}, "name": "mixed2", "inbound_nodes": [[["activation_959", 0, 0, {}], ["activation_961", 0, 0, {}], ["activation_964", 0, 0, {}], ["activation_965", 0, 0, {}]]]}, {"class_name": "Conv2D", "config": {"name": "conv2d_967", "trainable": true, "dtype": "float32", "filters": 64, "kernel_size": [1, 1], "strides": [1, 1], "padding": "same", "data_format": "channels_last", "dilation_rate": [1, 1], "groups": 1, "activation": "linear", "use_bias": false, "kernel_initializer": {"class_name": "GlorotUniform", "config": {"seed": null}}, "bias_initializer": {"class_name": "Zeros", "config": {}}, "kernel_regularizer": null, "bias_regularizer": null, "activity_regularizer": null, "kernel_constraint": null, "bias_constraint": null}, "name": "conv2d_967", "inbound_nodes": [[["mixed2", 0, 0, {}]]]}, {"class_name": "BatchNormalization", "config": {"name": "batch_normalization_967", "trainable": true, "dtype": "float32", "axis": [3], "momentum": 0.99, "epsilon": 0.001, "center": true, "scale": false, "beta_initializer": {"class_name": "Zeros", "config": {}}, "gamma_initializer": {"class_name": "Ones", "config": {}}, "moving_mean_initializer": {"class_name": "Zeros", "config": {}}, "moving_variance_initializer": {"class_name": "Ones", "config": {}}, "beta_regularizer": null, "gamma_regularizer": null, "beta_constraint": null, "gamma_constraint": null}, "name": "batch_normalization_967", "inbound_nodes": [[["conv2d_967", 0, 0, {}]]]}, {"class_name": "Activation", "config": {"name": "activation_967", "trainable": true, "dtype": "float32", "activation": "relu"}, "name": "activation_967", "inbound_nodes": [[["batch_normalization_967", 0, 0, {}]]]}, {"class_name": "Conv2D", "config": {"name": "conv2d_968", "trainable": true, "dtype": "float32", "filters": 96, "kernel_size": [3, 3], "strides": [1, 1], "padding": "same", "data_format": "channels_last", "dilation_rate": [1, 1], "groups": 1, "activation": "linear", "use_bias": false, "kernel_initializer": {"class_name": "GlorotUniform", "config": {"seed": null}}, "bias_initializer": {"class_name": "Zeros", "config": {}}, "kernel_regularizer": null, "bias_regularizer": null, "activity_regularizer": null, "kernel_constraint": null, "bias_constraint": null}, "name": "conv2d_968", "inbound_nodes": [[["activation_967", 0, 0, {}]]]}, {"class_name": "BatchNormalization", "config": {"name": "batch_normalization_968", "trainable": true, "dtype": "float32", "axis": [3], "momentum": 0.99, "epsilon": 0.001, "center": true, "scale": false, "beta_initializer": {"class_name": "Zeros", "config": {}}, "gamma_initializer": {"class_name": "Ones", "config": {}}, "moving_mean_initializer": {"class_name": "Zeros", "config": {}}, "moving_variance_initializer": {"class_name": "Ones", "config": {}}, "beta_regularizer": null, "gamma_regularizer": null, "beta_constraint": null, "gamma_constraint": null}, "name": "batch_normalization_968", "inbound_nodes": [[["conv2d_968", 0, 0, {}]]]}, {"class_name": "Activation", "config": {"name": "activation_968", "trainable": true, "dtype": "float32", "activation": "relu"}, "name": "activation_968", "inbound_nodes": [[["batch_normalization_968", 0, 0, {}]]]}, {"class_name": "Conv2D", "config": {"name": "conv2d_966", "trainable": true, "dtype": "float32", "filters": 384, "kernel_size": [3, 3], "strides": [2, 2], "padding": "valid", "data_format": "channels_last", "dilation_rate": [1, 1], "groups": 1, "activation": "linear", "use_bias": false, "kernel_initializer": {"class_name": "GlorotUniform", "config": {"seed": null}}, "bias_initializer": {"class_name": "Zeros", "config": {}}, "kernel_regularizer": null, "bias_regularizer": null, "activity_regularizer": null, "kernel_constraint": null, "bias_constraint": null}, "name": "conv2d_966", "inbound_nodes": [[["mixed2", 0, 0, {}]]]}, {"class_name": "Conv2D", "config": {"name": "conv2d_969", "trainable": true, "dtype": "float32", "filters": 96, "kernel_size": [3, 3], "strides": [2, 2], "padding": "valid", "data_format": "channels_last", "dilation_rate": [1, 1], "groups": 1, "activation": "linear", "use_bias": false, "kernel_initializer": {"class_name": "GlorotUniform", "config": {"seed": null}}, "bias_initializer": {"class_name": "Zeros", "config": {}}, "kernel_regularizer": null, "bias_regularizer": null, "activity_regularizer": null, "kernel_constraint": null, "bias_constraint": null}, "name": "conv2d_969", "inbound_nodes": [[["activation_968", 0, 0, {}]]]}, {"class_name": "BatchNormalization", "config": {"name": "batch_normalization_966", "trainable": true, "dtype": "float32", "axis": [3], "momentum": 0.99, "epsilon": 0.001, "center": true, "scale": false, "beta_initializer": {"class_name": "Zeros", "config": {}}, "gamma_initializer": {"class_name": "Ones", "config": {}}, "moving_mean_initializer": {"class_name": "Zeros", "config": {}}, "moving_variance_initializer": {"class_name": "Ones", "config": {}}, "beta_regularizer": null, "gamma_regularizer": null, "beta_constraint": null, "gamma_constraint": null}, "name": "batch_normalization_966", "inbound_nodes": [[["conv2d_966", 0, 0, {}]]]}, {"class_name": "BatchNormalization", "config": {"name": "batch_normalization_969", "trainable": true, "dtype": "float32", "axis": [3], "momentum": 0.99, "epsilon": 0.001, "center": true, "scale": false, "beta_initializer": {"class_name": "Zeros", "config": {}}, "gamma_initializer": {"class_name": "Ones", "config": {}}, "moving_mean_initializer": {"class_name": "Zeros", "config": {}}, "moving_variance_initializer": {"class_name": "Ones", "config": {}}, "beta_regularizer": null, "gamma_regularizer": null, "beta_constraint": null, "gamma_constraint": null}, "name": "batch_normalization_969", "inbound_nodes": [[["conv2d_969", 0, 0, {}]]]}, {"class_name": "Activation", "config": {"name": "activation_966", "trainable": true, "dtype": "float32", "activation": "relu"}, "name": "activation_966", "inbound_nodes": [[["batch_normalization_966", 0, 0, {}]]]}, {"class_name": "Activation", "config": {"name": "activation_969", "trainable": true, "dtype": "float32", "activation": "relu"}, "name": "activation_969", "inbound_nodes": [[["batch_normalization_969", 0, 0, {}]]]}, {"class_name": "MaxPooling2D", "config": {"name": "max_pooling2d_42", "trainable": true, "dtype": "float32", "pool_size": [3, 3], "padding": "valid", "strides": [2, 2], "data_format": "channels_last"}, "name": "max_pooling2d_42", "inbound_nodes": [[["mixed2", 0, 0, {}]]]}, {"class_name": "Concatenate", "config": {"name": "mixed3", "trainable": true, "dtype": "float32", "axis": 3}, "name": "mixed3", "inbound_nodes": [[["activation_966", 0, 0, {}], ["activation_969", 0, 0, {}], ["max_pooling2d_42", 0, 0, {}]]]}, {"class_name": "Conv2D", "config": {"name": "conv2d_974", "trainable": true, "dtype": "float32", "filters": 128, "kernel_size": [1, 1], "strides": [1, 1], "padding": "same", "data_format": "channels_last", "dilation_rate": [1, 1], "groups": 1, "activation": "linear", "use_bias": false, "kernel_initializer": {"class_name": "GlorotUniform", "config": {"seed": null}}, "bias_initializer": {"class_name": "Zeros", "config": {}}, "kernel_regularizer": null, "bias_regularizer": null, "activity_regularizer": null, "kernel_constraint": null, "bias_constraint": null}, "name": "conv2d_974", "inbound_nodes": [[["mixed3", 0, 0, {}]]]}, {"class_name": "BatchNormalization", "config": {"name": "batch_normalization_974", "trainable": true, "dtype": "float32", "axis": [3], "momentum": 0.99, "epsilon": 0.001, "center": true, "scale": false, "beta_initializer": {"class_name": "Zeros", "config": {}}, "gamma_initializer": {"class_name": "Ones", "config": {}}, "moving_mean_initializer": {"class_name": "Zeros", "config": {}}, "moving_variance_initializer": {"class_name": "Ones", "config": {}}, "beta_regularizer": null, "gamma_regularizer": null, "beta_constraint": null, "gamma_constraint": null}, "name": "batch_normalization_974", "inbound_nodes": [[["conv2d_974", 0, 0, {}]]]}, {"class_name": "Activation", "config": {"name": "activation_974", "trainable": true, "dtype": "float32", "activation": "relu"}, "name": "activation_974", "inbound_nodes": [[["batch_normalization_974", 0, 0, {}]]]}, {"class_name": "Conv2D", "config": {"name": "conv2d_975", "trainable": true, "dtype": "float32", "filters": 128, "kernel_size": [7, 1], "strides": [1, 1], "padding": "same", "data_format": "channels_last", "dilation_rate": [1, 1], "groups": 1, "activation": "linear", "use_bias": false, "kernel_initializer": {"class_name": "GlorotUniform", "config": {"seed": null}}, "bias_initializer": {"class_name": "Zeros", "config": {}}, "kernel_regularizer": null, "bias_regularizer": null, "activity_regularizer": null, "kernel_constraint": null, "bias_constraint": null}, "name": "conv2d_975", "inbound_nodes": [[["activation_974", 0, 0, {}]]]}, {"class_name": "BatchNormalization", "config": {"name": "batch_normalization_975", "trainable": true, "dtype": "float32", "axis": [3], "momentum": 0.99, "epsilon": 0.001, "center": true, "scale": false, "beta_initializer": {"class_name": "Zeros", "config": {}}, "gamma_initializer": {"class_name": "Ones", "config": {}}, "moving_mean_initializer": {"class_name": "Zeros", "config": {}}, "moving_variance_initializer": {"class_name": "Ones", "config": {}}, "beta_regularizer": null, "gamma_regularizer": null, "beta_constraint": null, "gamma_constraint": null}, "name": "batch_normalization_975", "inbound_nodes": [[["conv2d_975", 0, 0, {}]]]}, {"class_name": "Activation", "config": {"name": "activation_975", "trainable": true, "dtype": "float32", "activation": "relu"}, "name": "activation_975", "inbound_nodes": [[["batch_normalization_975", 0, 0, {}]]]}, {"class_name": "Conv2D", "config": {"name": "conv2d_971", "trainable": true, "dtype": "float32", "filters": 128, "kernel_size": [1, 1], "strides": [1, 1], "padding": "same", "data_format": "channels_last", "dilation_rate": [1, 1], "groups": 1, "activation": "linear", "use_bias": false, "kernel_initializer": {"class_name": "GlorotUniform", "config": {"seed": null}}, "bias_initializer": {"class_name": "Zeros", "config": {}}, "kernel_regularizer": null, "bias_regularizer": null, "activity_regularizer": null, "kernel_constraint": null, "bias_constraint": null}, "name": "conv2d_971", "inbound_nodes": [[["mixed3", 0, 0, {}]]]}, {"class_name": "Conv2D", "config": {"name": "conv2d_976", "trainable": true, "dtype": "float32", "filters": 128, "kernel_size": [1, 7], "strides": [1, 1], "padding": "same", "data_format": "channels_last", "dilation_rate": [1, 1], "groups": 1, "activation": "linear", "use_bias": false, "kernel_initializer": {"class_name": "GlorotUniform", "config": {"seed": null}}, "bias_initializer": {"class_name": "Zeros", "config": {}}, "kernel_regularizer": null, "bias_regularizer": null, "activity_regularizer": null, "kernel_constraint": null, "bias_constraint": null}, "name": "conv2d_976", "inbound_nodes": [[["activation_975", 0, 0, {}]]]}, {"class_name": "BatchNormalization", "config": {"name": "batch_normalization_971", "trainable": true, "dtype": "float32", "axis": [3], "momentum": 0.99, "epsilon": 0.001, "center": true, "scale": false, "beta_initializer": {"class_name": "Zeros", "config": {}}, "gamma_initializer": {"class_name": "Ones", "config": {}}, "moving_mean_initializer": {"class_name": "Zeros", "config": {}}, "moving_variance_initializer": {"class_name": "Ones", "config": {}}, "beta_regularizer": null, "gamma_regularizer": null, "beta_constraint": null, "gamma_constraint": null}, "name": "batch_normalization_971", "inbound_nodes": [[["conv2d_971", 0, 0, {}]]]}, {"class_name": "BatchNormalization", "config": {"name": "batch_normalization_976", "trainable": true, "dtype": "float32", "axis": [3], "momentum": 0.99, "epsilon": 0.001, "center": true, "scale": false, "beta_initializer": {"class_name": "Zeros", "config": {}}, "gamma_initializer": {"class_name": "Ones", "config": {}}, "moving_mean_initializer": {"class_name": "Zeros", "config": {}}, "moving_variance_initializer": {"class_name": "Ones", "config": {}}, "beta_regularizer": null, "gamma_regularizer": null, "beta_constraint": null, "gamma_constraint": null}, "name": "batch_normalization_976", "inbound_nodes": [[["conv2d_976", 0, 0, {}]]]}, {"class_name": "Activation", "config": {"name": "activation_971", "trainable": true, "dtype": "float32", "activation": "relu"}, "name": "activation_971", "inbound_nodes": [[["batch_normalization_971", 0, 0, {}]]]}, {"class_name": "Activation", "config": {"name": "activation_976", "trainable": true, "dtype": "float32", "activation": "relu"}, "name": "activation_976", "inbound_nodes": [[["batch_normalization_976", 0, 0, {}]]]}, {"class_name": "Conv2D", "config": {"name": "conv2d_972", "trainable": true, "dtype": "float32", "filters": 128, "kernel_size": [1, 7], "strides": [1, 1], "padding": "same", "data_format": "channels_last", "dilation_rate": [1, 1], "groups": 1, "activation": "linear", "use_bias": false, "kernel_initializer": {"class_name": "GlorotUniform", "config": {"seed": null}}, "bias_initializer": {"class_name": "Zeros", "config": {}}, "kernel_regularizer": null, "bias_regularizer": null, "activity_regularizer": null, "kernel_constraint": null, "bias_constraint": null}, "name": "conv2d_972", "inbound_nodes": [[["activation_971", 0, 0, {}]]]}, {"class_name": "Conv2D", "config": {"name": "conv2d_977", "trainable": true, "dtype": "float32", "filters": 128, "kernel_size": [7, 1], "strides": [1, 1], "padding": "same", "data_format": "channels_last", "dilation_rate": [1, 1], "groups": 1, "activation": "linear", "use_bias": false, "kernel_initializer": {"class_name": "GlorotUniform", "config": {"seed": null}}, "bias_initializer": {"class_name": "Zeros", "config": {}}, "kernel_regularizer": null, "bias_regularizer": null, "activity_regularizer": null, "kernel_constraint": null, "bias_constraint": null}, "name": "conv2d_977", "inbound_nodes": [[["activation_976", 0, 0, {}]]]}, {"class_name": "BatchNormalization", "config": {"name": "batch_normalization_972", "trainable": true, "dtype": "float32", "axis": [3], "momentum": 0.99, "epsilon": 0.001, "center": true, "scale": false, "beta_initializer": {"class_name": "Zeros", "config": {}}, "gamma_initializer": {"class_name": "Ones", "config": {}}, "moving_mean_initializer": {"class_name": "Zeros", "config": {}}, "moving_variance_initializer": {"class_name": "Ones", "config": {}}, "beta_regularizer": null, "gamma_regularizer": null, "beta_constraint": null, "gamma_constraint": null}, "name": "batch_normalization_972", "inbound_nodes": [[["conv2d_972", 0, 0, {}]]]}, {"class_name": "BatchNormalization", "config": {"name": "batch_normalization_977", "trainable": true, "dtype": "float32", "axis": [3], "momentum": 0.99, "epsilon": 0.001, "center": true, "scale": false, "beta_initializer": {"class_name": "Zeros", "config": {}}, "gamma_initializer": {"class_name": "Ones", "config": {}}, "moving_mean_initializer": {"class_name": "Zeros", "config": {}}, "moving_variance_initializer": {"class_name": "Ones", "config": {}}, "beta_regularizer": null, "gamma_regularizer": null, "beta_constraint": null, "gamma_constraint": null}, "name": "batch_normalization_977", "inbound_nodes": [[["conv2d_977", 0, 0, {}]]]}, {"class_name": "Activation", "config": {"name": "activation_972", "trainable": true, "dtype": "float32", "activation": "relu"}, "name": "activation_972", "inbound_nodes": [[["batch_normalization_972", 0, 0, {}]]]}, {"class_name": "Activation", "config": {"name": "activation_977", "trainable": true, "dtype": "float32", "activation": "relu"}, "name": "activation_977", "inbound_nodes": [[["batch_normalization_977", 0, 0, {}]]]}, {"class_name": "AveragePooling2D", "config": {"name": "average_pooling2d_93", "trainable": true, "dtype": "float32", "pool_size": [3, 3], "padding": "same", "strides": [1, 1], "data_format": "channels_last"}, "name": "average_pooling2d_93", "inbound_nodes": [[["mixed3", 0, 0, {}]]]}, {"class_name": "Conv2D", "config": {"name": "conv2d_970", "trainable": true, "dtype": "float32", "filters": 192, "kernel_size": [1, 1], "strides": [1, 1], "padding": "same", "data_format": "channels_last", "dilation_rate": [1, 1], "groups": 1, "activation": "linear", "use_bias": false, "kernel_initializer": {"class_name": "GlorotUniform", "config": {"seed": null}}, "bias_initializer": {"class_name": "Zeros", "config": {}}, "kernel_regularizer": null, "bias_regularizer": null, "activity_regularizer": null, "kernel_constraint": null, "bias_constraint": null}, "name": "conv2d_970", "inbound_nodes": [[["mixed3", 0, 0, {}]]]}, {"class_name": "Conv2D", "config": {"name": "conv2d_973", "trainable": true, "dtype": "float32", "filters": 192, "kernel_size": [7, 1], "strides": [1, 1], "padding": "same", "data_format": "channels_last", "dilation_rate": [1, 1], "groups": 1, "activation": "linear", "use_bias": false, "kernel_initializer": {"class_name": "GlorotUniform", "config": {"seed": null}}, "bias_initializer": {"class_name": "Zeros", "config": {}}, "kernel_regularizer": null, "bias_regularizer": null, "activity_regularizer": null, "kernel_constraint": null, "bias_constraint": null}, "name": "conv2d_973", "inbound_nodes": [[["activation_972", 0, 0, {}]]]}, {"class_name": "Conv2D", "config": {"name": "conv2d_978", "trainable": true, "dtype": "float32", "filters": 192, "kernel_size": [1, 7], "strides": [1, 1], "padding": "same", "data_format": "channels_last", "dilation_rate": [1, 1], "groups": 1, "activation": "linear", "use_bias": false, "kernel_initializer": {"class_name": "GlorotUniform", "config": {"seed": null}}, "bias_initializer": {"class_name": "Zeros", "config": {}}, "kernel_regularizer": null, "bias_regularizer": null, "activity_regularizer": null, "kernel_constraint": null, "bias_constraint": null}, "name": "conv2d_978", "inbound_nodes": [[["activation_977", 0, 0, {}]]]}, {"class_name": "Conv2D", "config": {"name": "conv2d_979", "trainable": true, "dtype": "float32", "filters": 192, "kernel_size": [1, 1], "strides": [1, 1], "padding": "same", "data_format": "channels_last", "dilation_rate": [1, 1], "groups": 1, "activation": "linear", "use_bias": false, "kernel_initializer": {"class_name": "GlorotUniform", "config": {"seed": null}}, "bias_initializer": {"class_name": "Zeros", "config": {}}, "kernel_regularizer": null, "bias_regularizer": null, "activity_regularizer": null, "kernel_constraint": null, "bias_constraint": null}, "name": "conv2d_979", "inbound_nodes": [[["average_pooling2d_93", 0, 0, {}]]]}, {"class_name": "BatchNormalization", "config": {"name": "batch_normalization_970", "trainable": true, "dtype": "float32", "axis": [3], "momentum": 0.99, "epsilon": 0.001, "center": true, "scale": false, "beta_initializer": {"class_name": "Zeros", "config": {}}, "gamma_initializer": {"class_name": "Ones", "config": {}}, "moving_mean_initializer": {"class_name": "Zeros", "config": {}}, "moving_variance_initializer": {"class_name": "Ones", "config": {}}, "beta_regularizer": null, "gamma_regularizer": null, "beta_constraint": null, "gamma_constraint": null}, "name": "batch_normalization_970", "inbound_nodes": [[["conv2d_970", 0, 0, {}]]]}, {"class_name": "BatchNormalization", "config": {"name": "batch_normalization_973", "trainable": true, "dtype": "float32", "axis": [3], "momentum": 0.99, "epsilon": 0.001, "center": true, "scale": false, "beta_initializer": {"class_name": "Zeros", "config": {}}, "gamma_initializer": {"class_name": "Ones", "config": {}}, "moving_mean_initializer": {"class_name": "Zeros", "config": {}}, "moving_variance_initializer": {"class_name": "Ones", "config": {}}, "beta_regularizer": null, "gamma_regularizer": null, "beta_constraint": null, "gamma_constraint": null}, "name": "batch_normalization_973", "inbound_nodes": [[["conv2d_973", 0, 0, {}]]]}, {"class_name": "BatchNormalization", "config": {"name": "batch_normalization_978", "trainable": true, "dtype": "float32", "axis": [3], "momentum": 0.99, "epsilon": 0.001, "center": true, "scale": false, "beta_initializer": {"class_name": "Zeros", "config": {}}, "gamma_initializer": {"class_name": "Ones", "config": {}}, "moving_mean_initializer": {"class_name": "Zeros", "config": {}}, "moving_variance_initializer": {"class_name": "Ones", "config": {}}, "beta_regularizer": null, "gamma_regularizer": null, "beta_constraint": null, "gamma_constraint": null}, "name": "batch_normalization_978", "inbound_nodes": [[["conv2d_978", 0, 0, {}]]]}, {"class_name": "BatchNormalization", "config": {"name": "batch_normalization_979", "trainable": true, "dtype": "float32", "axis": [3], "momentum": 0.99, "epsilon": 0.001, "center": true, "scale": false, "beta_initializer": {"class_name": "Zeros", "config": {}}, "gamma_initializer": {"class_name": "Ones", "config": {}}, "moving_mean_initializer": {"class_name": "Zeros", "config": {}}, "moving_variance_initializer": {"class_name": "Ones", "config": {}}, "beta_regularizer": null, "gamma_regularizer": null, "beta_constraint": null, "gamma_constraint": null}, "name": "batch_normalization_979", "inbound_nodes": [[["conv2d_979", 0, 0, {}]]]}, {"class_name": "Activation", "config": {"name": "activation_970", "trainable": true, "dtype": "float32", "activation": "relu"}, "name": "activation_970", "inbound_nodes": [[["batch_normalization_970", 0, 0, {}]]]}, {"class_name": "Activation", "config": {"name": "activation_973", "trainable": true, "dtype": "float32", "activation": "relu"}, "name": "activation_973", "inbound_nodes": [[["batch_normalization_973", 0, 0, {}]]]}, {"class_name": "Activation", "config": {"name": "activation_978", "trainable": true, "dtype": "float32", "activation": "relu"}, "name": "activation_978", "inbound_nodes": [[["batch_normalization_978", 0, 0, {}]]]}, {"class_name": "Activation", "config": {"name": "activation_979", "trainable": true, "dtype": "float32", "activation": "relu"}, "name": "activation_979", "inbound_nodes": [[["batch_normalization_979", 0, 0, {}]]]}, {"class_name": "Concatenate", "config": {"name": "mixed4", "trainable": true, "dtype": "float32", "axis": 3}, "name": "mixed4", "inbound_nodes": [[["activation_970", 0, 0, {}], ["activation_973", 0, 0, {}], ["activation_978", 0, 0, {}], ["activation_979", 0, 0, {}]]]}, {"class_name": "Conv2D", "config": {"name": "conv2d_984", "trainable": true, "dtype": "float32", "filters": 160, "kernel_size": [1, 1], "strides": [1, 1], "padding": "same", "data_format": "channels_last", "dilation_rate": [1, 1], "groups": 1, "activation": "linear", "use_bias": false, "kernel_initializer": {"class_name": "GlorotUniform", "config": {"seed": null}}, "bias_initializer": {"class_name": "Zeros", "config": {}}, "kernel_regularizer": null, "bias_regularizer": null, "activity_regularizer": null, "kernel_constraint": null, "bias_constraint": null}, "name": "conv2d_984", "inbound_nodes": [[["mixed4", 0, 0, {}]]]}, {"class_name": "BatchNormalization", "config": {"name": "batch_normalization_984", "trainable": true, "dtype": "float32", "axis": [3], "momentum": 0.99, "epsilon": 0.001, "center": true, "scale": false, "beta_initializer": {"class_name": "Zeros", "config": {}}, "gamma_initializer": {"class_name": "Ones", "config": {}}, "moving_mean_initializer": {"class_name": "Zeros", "config": {}}, "moving_variance_initializer": {"class_name": "Ones", "config": {}}, "beta_regularizer": null, "gamma_regularizer": null, "beta_constraint": null, "gamma_constraint": null}, "name": "batch_normalization_984", "inbound_nodes": [[["conv2d_984", 0, 0, {}]]]}, {"class_name": "Activation", "config": {"name": "activation_984", "trainable": true, "dtype": "float32", "activation": "relu"}, "name": "activation_984", "inbound_nodes": [[["batch_normalization_984", 0, 0, {}]]]}, {"class_name": "Conv2D", "config": {"name": "conv2d_985", "trainable": true, "dtype": "float32", "filters": 160, "kernel_size": [7, 1], "strides": [1, 1], "padding": "same", "data_format": "channels_last", "dilation_rate": [1, 1], "groups": 1, "activation": "linear", "use_bias": false, "kernel_initializer": {"class_name": "GlorotUniform", "config": {"seed": null}}, "bias_initializer": {"class_name": "Zeros", "config": {}}, "kernel_regularizer": null, "bias_regularizer": null, "activity_regularizer": null, "kernel_constraint": null, "bias_constraint": null}, "name": "conv2d_985", "inbound_nodes": [[["activation_984", 0, 0, {}]]]}, {"class_name": "BatchNormalization", "config": {"name": "batch_normalization_985", "trainable": true, "dtype": "float32", "axis": [3], "momentum": 0.99, "epsilon": 0.001, "center": true, "scale": false, "beta_initializer": {"class_name": "Zeros", "config": {}}, "gamma_initializer": {"class_name": "Ones", "config": {}}, "moving_mean_initializer": {"class_name": "Zeros", "config": {}}, "moving_variance_initializer": {"class_name": "Ones", "config": {}}, "beta_regularizer": null, "gamma_regularizer": null, "beta_constraint": null, "gamma_constraint": null}, "name": "batch_normalization_985", "inbound_nodes": [[["conv2d_985", 0, 0, {}]]]}, {"class_name": "Activation", "config": {"name": "activation_985", "trainable": true, "dtype": "float32", "activation": "relu"}, "name": "activation_985", "inbound_nodes": [[["batch_normalization_985", 0, 0, {}]]]}, {"class_name": "Conv2D", "config": {"name": "conv2d_981", "trainable": true, "dtype": "float32", "filters": 160, "kernel_size": [1, 1], "strides": [1, 1], "padding": "same", "data_format": "channels_last", "dilation_rate": [1, 1], "groups": 1, "activation": "linear", "use_bias": false, "kernel_initializer": {"class_name": "GlorotUniform", "config": {"seed": null}}, "bias_initializer": {"class_name": "Zeros", "config": {}}, "kernel_regularizer": null, "bias_regularizer": null, "activity_regularizer": null, "kernel_constraint": null, "bias_constraint": null}, "name": "conv2d_981", "inbound_nodes": [[["mixed4", 0, 0, {}]]]}, {"class_name": "Conv2D", "config": {"name": "conv2d_986", "trainable": true, "dtype": "float32", "filters": 160, "kernel_size": [1, 7], "strides": [1, 1], "padding": "same", "data_format": "channels_last", "dilation_rate": [1, 1], "groups": 1, "activation": "linear", "use_bias": false, "kernel_initializer": {"class_name": "GlorotUniform", "config": {"seed": null}}, "bias_initializer": {"class_name": "Zeros", "config": {}}, "kernel_regularizer": null, "bias_regularizer": null, "activity_regularizer": null, "kernel_constraint": null, "bias_constraint": null}, "name": "conv2d_986", "inbound_nodes": [[["activation_985", 0, 0, {}]]]}, {"class_name": "BatchNormalization", "config": {"name": "batch_normalization_981", "trainable": true, "dtype": "float32", "axis": [3], "momentum": 0.99, "epsilon": 0.001, "center": true, "scale": false, "beta_initializer": {"class_name": "Zeros", "config": {}}, "gamma_initializer": {"class_name": "Ones", "config": {}}, "moving_mean_initializer": {"class_name": "Zeros", "config": {}}, "moving_variance_initializer": {"class_name": "Ones", "config": {}}, "beta_regularizer": null, "gamma_regularizer": null, "beta_constraint": null, "gamma_constraint": null}, "name": "batch_normalization_981", "inbound_nodes": [[["conv2d_981", 0, 0, {}]]]}, {"class_name": "BatchNormalization", "config": {"name": "batch_normalization_986", "trainable": true, "dtype": "float32", "axis": [3], "momentum": 0.99, "epsilon": 0.001, "center": true, "scale": false, "beta_initializer": {"class_name": "Zeros", "config": {}}, "gamma_initializer": {"class_name": "Ones", "config": {}}, "moving_mean_initializer": {"class_name": "Zeros", "config": {}}, "moving_variance_initializer": {"class_name": "Ones", "config": {}}, "beta_regularizer": null, "gamma_regularizer": null, "beta_constraint": null, "gamma_constraint": null}, "name": "batch_normalization_986", "inbound_nodes": [[["conv2d_986", 0, 0, {}]]]}, {"class_name": "Activation", "config": {"name": "activation_981", "trainable": true, "dtype": "float32", "activation": "relu"}, "name": "activation_981", "inbound_nodes": [[["batch_normalization_981", 0, 0, {}]]]}, {"class_name": "Activation", "config": {"name": "activation_986", "trainable": true, "dtype": "float32", "activation": "relu"}, "name": "activation_986", "inbound_nodes": [[["batch_normalization_986", 0, 0, {}]]]}, {"class_name": "Conv2D", "config": {"name": "conv2d_982", "trainable": true, "dtype": "float32", "filters": 160, "kernel_size": [1, 7], "strides": [1, 1], "padding": "same", "data_format": "channels_last", "dilation_rate": [1, 1], "groups": 1, "activation": "linear", "use_bias": false, "kernel_initializer": {"class_name": "GlorotUniform", "config": {"seed": null}}, "bias_initializer": {"class_name": "Zeros", "config": {}}, "kernel_regularizer": null, "bias_regularizer": null, "activity_regularizer": null, "kernel_constraint": null, "bias_constraint": null}, "name": "conv2d_982", "inbound_nodes": [[["activation_981", 0, 0, {}]]]}, {"class_name": "Conv2D", "config": {"name": "conv2d_987", "trainable": true, "dtype": "float32", "filters": 160, "kernel_size": [7, 1], "strides": [1, 1], "padding": "same", "data_format": "channels_last", "dilation_rate": [1, 1], "groups": 1, "activation": "linear", "use_bias": false, "kernel_initializer": {"class_name": "GlorotUniform", "config": {"seed": null}}, "bias_initializer": {"class_name": "Zeros", "config": {}}, "kernel_regularizer": null, "bias_regularizer": null, "activity_regularizer": null, "kernel_constraint": null, "bias_constraint": null}, "name": "conv2d_987", "inbound_nodes": [[["activation_986", 0, 0, {}]]]}, {"class_name": "BatchNormalization", "config": {"name": "batch_normalization_982", "trainable": true, "dtype": "float32", "axis": [3], "momentum": 0.99, "epsilon": 0.001, "center": true, "scale": false, "beta_initializer": {"class_name": "Zeros", "config": {}}, "gamma_initializer": {"class_name": "Ones", "config": {}}, "moving_mean_initializer": {"class_name": "Zeros", "config": {}}, "moving_variance_initializer": {"class_name": "Ones", "config": {}}, "beta_regularizer": null, "gamma_regularizer": null, "beta_constraint": null, "gamma_constraint": null}, "name": "batch_normalization_982", "inbound_nodes": [[["conv2d_982", 0, 0, {}]]]}, {"class_name": "BatchNormalization", "config": {"name": "batch_normalization_987", "trainable": true, "dtype": "float32", "axis": [3], "momentum": 0.99, "epsilon": 0.001, "center": true, "scale": false, "beta_initializer": {"class_name": "Zeros", "config": {}}, "gamma_initializer": {"class_name": "Ones", "config": {}}, "moving_mean_initializer": {"class_name": "Zeros", "config": {}}, "moving_variance_initializer": {"class_name": "Ones", "config": {}}, "beta_regularizer": null, "gamma_regularizer": null, "beta_constraint": null, "gamma_constraint": null}, "name": "batch_normalization_987", "inbound_nodes": [[["conv2d_987", 0, 0, {}]]]}, {"class_name": "Activation", "config": {"name": "activation_982", "trainable": true, "dtype": "float32", "activation": "relu"}, "name": "activation_982", "inbound_nodes": [[["batch_normalization_982", 0, 0, {}]]]}, {"class_name": "Activation", "config": {"name": "activation_987", "trainable": true, "dtype": "float32", "activation": "relu"}, "name": "activation_987", "inbound_nodes": [[["batch_normalization_987", 0, 0, {}]]]}, {"class_name": "AveragePooling2D", "config": {"name": "average_pooling2d_94", "trainable": true, "dtype": "float32", "pool_size": [3, 3], "padding": "same", "strides": [1, 1], "data_format": "channels_last"}, "name": "average_pooling2d_94", "inbound_nodes": [[["mixed4", 0, 0, {}]]]}, {"class_name": "Conv2D", "config": {"name": "conv2d_980", "trainable": true, "dtype": "float32", "filters": 192, "kernel_size": [1, 1], "strides": [1, 1], "padding": "same", "data_format": "channels_last", "dilation_rate": [1, 1], "groups": 1, "activation": "linear", "use_bias": false, "kernel_initializer": {"class_name": "GlorotUniform", "config": {"seed": null}}, "bias_initializer": {"class_name": "Zeros", "config": {}}, "kernel_regularizer": null, "bias_regularizer": null, "activity_regularizer": null, "kernel_constraint": null, "bias_constraint": null}, "name": "conv2d_980", "inbound_nodes": [[["mixed4", 0, 0, {}]]]}, {"class_name": "Conv2D", "config": {"name": "conv2d_983", "trainable": true, "dtype": "float32", "filters": 192, "kernel_size": [7, 1], "strides": [1, 1], "padding": "same", "data_format": "channels_last", "dilation_rate": [1, 1], "groups": 1, "activation": "linear", "use_bias": false, "kernel_initializer": {"class_name": "GlorotUniform", "config": {"seed": null}}, "bias_initializer": {"class_name": "Zeros", "config": {}}, "kernel_regularizer": null, "bias_regularizer": null, "activity_regularizer": null, "kernel_constraint": null, "bias_constraint": null}, "name": "conv2d_983", "inbound_nodes": [[["activation_982", 0, 0, {}]]]}, {"class_name": "Conv2D", "config": {"name": "conv2d_988", "trainable": true, "dtype": "float32", "filters": 192, "kernel_size": [1, 7], "strides": [1, 1], "padding": "same", "data_format": "channels_last", "dilation_rate": [1, 1], "groups": 1, "activation": "linear", "use_bias": false, "kernel_initializer": {"class_name": "GlorotUniform", "config": {"seed": null}}, "bias_initializer": {"class_name": "Zeros", "config": {}}, "kernel_regularizer": null, "bias_regularizer": null, "activity_regularizer": null, "kernel_constraint": null, "bias_constraint": null}, "name": "conv2d_988", "inbound_nodes": [[["activation_987", 0, 0, {}]]]}, {"class_name": "Conv2D", "config": {"name": "conv2d_989", "trainable": true, "dtype": "float32", "filters": 192, "kernel_size": [1, 1], "strides": [1, 1], "padding": "same", "data_format": "channels_last", "dilation_rate": [1, 1], "groups": 1, "activation": "linear", "use_bias": false, "kernel_initializer": {"class_name": "GlorotUniform", "config": {"seed": null}}, "bias_initializer": {"class_name": "Zeros", "config": {}}, "kernel_regularizer": null, "bias_regularizer": null, "activity_regularizer": null, "kernel_constraint": null, "bias_constraint": null}, "name": "conv2d_989", "inbound_nodes": [[["average_pooling2d_94", 0, 0, {}]]]}, {"class_name": "BatchNormalization", "config": {"name": "batch_normalization_980", "trainable": true, "dtype": "float32", "axis": [3], "momentum": 0.99, "epsilon": 0.001, "center": true, "scale": false, "beta_initializer": {"class_name": "Zeros", "config": {}}, "gamma_initializer": {"class_name": "Ones", "config": {}}, "moving_mean_initializer": {"class_name": "Zeros", "config": {}}, "moving_variance_initializer": {"class_name": "Ones", "config": {}}, "beta_regularizer": null, "gamma_regularizer": null, "beta_constraint": null, "gamma_constraint": null}, "name": "batch_normalization_980", "inbound_nodes": [[["conv2d_980", 0, 0, {}]]]}, {"class_name": "BatchNormalization", "config": {"name": "batch_normalization_983", "trainable": true, "dtype": "float32", "axis": [3], "momentum": 0.99, "epsilon": 0.001, "center": true, "scale": false, "beta_initializer": {"class_name": "Zeros", "config": {}}, "gamma_initializer": {"class_name": "Ones", "config": {}}, "moving_mean_initializer": {"class_name": "Zeros", "config": {}}, "moving_variance_initializer": {"class_name": "Ones", "config": {}}, "beta_regularizer": null, "gamma_regularizer": null, "beta_constraint": null, "gamma_constraint": null}, "name": "batch_normalization_983", "inbound_nodes": [[["conv2d_983", 0, 0, {}]]]}, {"class_name": "BatchNormalization", "config": {"name": "batch_normalization_988", "trainable": true, "dtype": "float32", "axis": [3], "momentum": 0.99, "epsilon": 0.001, "center": true, "scale": false, "beta_initializer": {"class_name": "Zeros", "config": {}}, "gamma_initializer": {"class_name": "Ones", "config": {}}, "moving_mean_initializer": {"class_name": "Zeros", "config": {}}, "moving_variance_initializer": {"class_name": "Ones", "config": {}}, "beta_regularizer": null, "gamma_regularizer": null, "beta_constraint": null, "gamma_constraint": null}, "name": "batch_normalization_988", "inbound_nodes": [[["conv2d_988", 0, 0, {}]]]}, {"class_name": "BatchNormalization", "config": {"name": "batch_normalization_989", "trainable": true, "dtype": "float32", "axis": [3], "momentum": 0.99, "epsilon": 0.001, "center": true, "scale": false, "beta_initializer": {"class_name": "Zeros", "config": {}}, "gamma_initializer": {"class_name": "Ones", "config": {}}, "moving_mean_initializer": {"class_name": "Zeros", "config": {}}, "moving_variance_initializer": {"class_name": "Ones", "config": {}}, "beta_regularizer": null, "gamma_regularizer": null, "beta_constraint": null, "gamma_constraint": null}, "name": "batch_normalization_989", "inbound_nodes": [[["conv2d_989", 0, 0, {}]]]}, {"class_name": "Activation", "config": {"name": "activation_980", "trainable": true, "dtype": "float32", "activation": "relu"}, "name": "activation_980", "inbound_nodes": [[["batch_normalization_980", 0, 0, {}]]]}, {"class_name": "Activation", "config": {"name": "activation_983", "trainable": true, "dtype": "float32", "activation": "relu"}, "name": "activation_983", "inbound_nodes": [[["batch_normalization_983", 0, 0, {}]]]}, {"class_name": "Activation", "config": {"name": "activation_988", "trainable": true, "dtype": "float32", "activation": "relu"}, "name": "activation_988", "inbound_nodes": [[["batch_normalization_988", 0, 0, {}]]]}, {"class_name": "Activation", "config": {"name": "activation_989", "trainable": true, "dtype": "float32", "activation": "relu"}, "name": "activation_989", "inbound_nodes": [[["batch_normalization_989", 0, 0, {}]]]}, {"class_name": "Concatenate", "config": {"name": "mixed5", "trainable": true, "dtype": "float32", "axis": 3}, "name": "mixed5", "inbound_nodes": [[["activation_980", 0, 0, {}], ["activation_983", 0, 0, {}], ["activation_988", 0, 0, {}], ["activation_989", 0, 0, {}]]]}, {"class_name": "Conv2D", "config": {"name": "conv2d_994", "trainable": true, "dtype": "float32", "filters": 160, "kernel_size": [1, 1], "strides": [1, 1], "padding": "same", "data_format": "channels_last", "dilation_rate": [1, 1], "groups": 1, "activation": "linear", "use_bias": false, "kernel_initializer": {"class_name": "GlorotUniform", "config": {"seed": null}}, "bias_initializer": {"class_name": "Zeros", "config": {}}, "kernel_regularizer": null, "bias_regularizer": null, "activity_regularizer": null, "kernel_constraint": null, "bias_constraint": null}, "name": "conv2d_994", "inbound_nodes": [[["mixed5", 0, 0, {}]]]}, {"class_name": "BatchNormalization", "config": {"name": "batch_normalization_994", "trainable": true, "dtype": "float32", "axis": [3], "momentum": 0.99, "epsilon": 0.001, "center": true, "scale": false, "beta_initializer": {"class_name": "Zeros", "config": {}}, "gamma_initializer": {"class_name": "Ones", "config": {}}, "moving_mean_initializer": {"class_name": "Zeros", "config": {}}, "moving_variance_initializer": {"class_name": "Ones", "config": {}}, "beta_regularizer": null, "gamma_regularizer": null, "beta_constraint": null, "gamma_constraint": null}, "name": "batch_normalization_994", "inbound_nodes": [[["conv2d_994", 0, 0, {}]]]}, {"class_name": "Activation", "config": {"name": "activation_994", "trainable": true, "dtype": "float32", "activation": "relu"}, "name": "activation_994", "inbound_nodes": [[["batch_normalization_994", 0, 0, {}]]]}, {"class_name": "Conv2D", "config": {"name": "conv2d_995", "trainable": true, "dtype": "float32", "filters": 160, "kernel_size": [7, 1], "strides": [1, 1], "padding": "same", "data_format": "channels_last", "dilation_rate": [1, 1], "groups": 1, "activation": "linear", "use_bias": false, "kernel_initializer": {"class_name": "GlorotUniform", "config": {"seed": null}}, "bias_initializer": {"class_name": "Zeros", "config": {}}, "kernel_regularizer": null, "bias_regularizer": null, "activity_regularizer": null, "kernel_constraint": null, "bias_constraint": null}, "name": "conv2d_995", "inbound_nodes": [[["activation_994", 0, 0, {}]]]}, {"class_name": "BatchNormalization", "config": {"name": "batch_normalization_995", "trainable": true, "dtype": "float32", "axis": [3], "momentum": 0.99, "epsilon": 0.001, "center": true, "scale": false, "beta_initializer": {"class_name": "Zeros", "config": {}}, "gamma_initializer": {"class_name": "Ones", "config": {}}, "moving_mean_initializer": {"class_name": "Zeros", "config": {}}, "moving_variance_initializer": {"class_name": "Ones", "config": {}}, "beta_regularizer": null, "gamma_regularizer": null, "beta_constraint": null, "gamma_constraint": null}, "name": "batch_normalization_995", "inbound_nodes": [[["conv2d_995", 0, 0, {}]]]}, {"class_name": "Activation", "config": {"name": "activation_995", "trainable": true, "dtype": "float32", "activation": "relu"}, "name": "activation_995", "inbound_nodes": [[["batch_normalization_995", 0, 0, {}]]]}, {"class_name": "Conv2D", "config": {"name": "conv2d_991", "trainable": true, "dtype": "float32", "filters": 160, "kernel_size": [1, 1], "strides": [1, 1], "padding": "same", "data_format": "channels_last", "dilation_rate": [1, 1], "groups": 1, "activation": "linear", "use_bias": false, "kernel_initializer": {"class_name": "GlorotUniform", "config": {"seed": null}}, "bias_initializer": {"class_name": "Zeros", "config": {}}, "kernel_regularizer": null, "bias_regularizer": null, "activity_regularizer": null, "kernel_constraint": null, "bias_constraint": null}, "name": "conv2d_991", "inbound_nodes": [[["mixed5", 0, 0, {}]]]}, {"class_name": "Conv2D", "config": {"name": "conv2d_996", "trainable": true, "dtype": "float32", "filters": 160, "kernel_size": [1, 7], "strides": [1, 1], "padding": "same", "data_format": "channels_last", "dilation_rate": [1, 1], "groups": 1, "activation": "linear", "use_bias": false, "kernel_initializer": {"class_name": "GlorotUniform", "config": {"seed": null}}, "bias_initializer": {"class_name": "Zeros", "config": {}}, "kernel_regularizer": null, "bias_regularizer": null, "activity_regularizer": null, "kernel_constraint": null, "bias_constraint": null}, "name": "conv2d_996", "inbound_nodes": [[["activation_995", 0, 0, {}]]]}, {"class_name": "BatchNormalization", "config": {"name": "batch_normalization_991", "trainable": true, "dtype": "float32", "axis": [3], "momentum": 0.99, "epsilon": 0.001, "center": true, "scale": false, "beta_initializer": {"class_name": "Zeros", "config": {}}, "gamma_initializer": {"class_name": "Ones", "config": {}}, "moving_mean_initializer": {"class_name": "Zeros", "config": {}}, "moving_variance_initializer": {"class_name": "Ones", "config": {}}, "beta_regularizer": null, "gamma_regularizer": null, "beta_constraint": null, "gamma_constraint": null}, "name": "batch_normalization_991", "inbound_nodes": [[["conv2d_991", 0, 0, {}]]]}, {"class_name": "BatchNormalization", "config": {"name": "batch_normalization_996", "trainable": true, "dtype": "float32", "axis": [3], "momentum": 0.99, "epsilon": 0.001, "center": true, "scale": false, "beta_initializer": {"class_name": "Zeros", "config": {}}, "gamma_initializer": {"class_name": "Ones", "config": {}}, "moving_mean_initializer": {"class_name": "Zeros", "config": {}}, "moving_variance_initializer": {"class_name": "Ones", "config": {}}, "beta_regularizer": null, "gamma_regularizer": null, "beta_constraint": null, "gamma_constraint": null}, "name": "batch_normalization_996", "inbound_nodes": [[["conv2d_996", 0, 0, {}]]]}, {"class_name": "Activation", "config": {"name": "activation_991", "trainable": true, "dtype": "float32", "activation": "relu"}, "name": "activation_991", "inbound_nodes": [[["batch_normalization_991", 0, 0, {}]]]}, {"class_name": "Activation", "config": {"name": "activation_996", "trainable": true, "dtype": "float32", "activation": "relu"}, "name": "activation_996", "inbound_nodes": [[["batch_normalization_996", 0, 0, {}]]]}, {"class_name": "Conv2D", "config": {"name": "conv2d_992", "trainable": true, "dtype": "float32", "filters": 160, "kernel_size": [1, 7], "strides": [1, 1], "padding": "same", "data_format": "channels_last", "dilation_rate": [1, 1], "groups": 1, "activation": "linear", "use_bias": false, "kernel_initializer": {"class_name": "GlorotUniform", "config": {"seed": null}}, "bias_initializer": {"class_name": "Zeros", "config": {}}, "kernel_regularizer": null, "bias_regularizer": null, "activity_regularizer": null, "kernel_constraint": null, "bias_constraint": null}, "name": "conv2d_992", "inbound_nodes": [[["activation_991", 0, 0, {}]]]}, {"class_name": "Conv2D", "config": {"name": "conv2d_997", "trainable": true, "dtype": "float32", "filters": 160, "kernel_size": [7, 1], "strides": [1, 1], "padding": "same", "data_format": "channels_last", "dilation_rate": [1, 1], "groups": 1, "activation": "linear", "use_bias": false, "kernel_initializer": {"class_name": "GlorotUniform", "config": {"seed": null}}, "bias_initializer": {"class_name": "Zeros", "config": {}}, "kernel_regularizer": null, "bias_regularizer": null, "activity_regularizer": null, "kernel_constraint": null, "bias_constraint": null}, "name": "conv2d_997", "inbound_nodes": [[["activation_996", 0, 0, {}]]]}, {"class_name": "BatchNormalization", "config": {"name": "batch_normalization_992", "trainable": true, "dtype": "float32", "axis": [3], "momentum": 0.99, "epsilon": 0.001, "center": true, "scale": false, "beta_initializer": {"class_name": "Zeros", "config": {}}, "gamma_initializer": {"class_name": "Ones", "config": {}}, "moving_mean_initializer": {"class_name": "Zeros", "config": {}}, "moving_variance_initializer": {"class_name": "Ones", "config": {}}, "beta_regularizer": null, "gamma_regularizer": null, "beta_constraint": null, "gamma_constraint": null}, "name": "batch_normalization_992", "inbound_nodes": [[["conv2d_992", 0, 0, {}]]]}, {"class_name": "BatchNormalization", "config": {"name": "batch_normalization_997", "trainable": true, "dtype": "float32", "axis": [3], "momentum": 0.99, "epsilon": 0.001, "center": true, "scale": false, "beta_initializer": {"class_name": "Zeros", "config": {}}, "gamma_initializer": {"class_name": "Ones", "config": {}}, "moving_mean_initializer": {"class_name": "Zeros", "config": {}}, "moving_variance_initializer": {"class_name": "Ones", "config": {}}, "beta_regularizer": null, "gamma_regularizer": null, "beta_constraint": null, "gamma_constraint": null}, "name": "batch_normalization_997", "inbound_nodes": [[["conv2d_997", 0, 0, {}]]]}, {"class_name": "Activation", "config": {"name": "activation_992", "trainable": true, "dtype": "float32", "activation": "relu"}, "name": "activation_992", "inbound_nodes": [[["batch_normalization_992", 0, 0, {}]]]}, {"class_name": "Activation", "config": {"name": "activation_997", "trainable": true, "dtype": "float32", "activation": "relu"}, "name": "activation_997", "inbound_nodes": [[["batch_normalization_997", 0, 0, {}]]]}, {"class_name": "AveragePooling2D", "config": {"name": "average_pooling2d_95", "trainable": true, "dtype": "float32", "pool_size": [3, 3], "padding": "same", "strides": [1, 1], "data_format": "channels_last"}, "name": "average_pooling2d_95", "inbound_nodes": [[["mixed5", 0, 0, {}]]]}, {"class_name": "Conv2D", "config": {"name": "conv2d_990", "trainable": true, "dtype": "float32", "filters": 192, "kernel_size": [1, 1], "strides": [1, 1], "padding": "same", "data_format": "channels_last", "dilation_rate": [1, 1], "groups": 1, "activation": "linear", "use_bias": false, "kernel_initializer": {"class_name": "GlorotUniform", "config": {"seed": null}}, "bias_initializer": {"class_name": "Zeros", "config": {}}, "kernel_regularizer": null, "bias_regularizer": null, "activity_regularizer": null, "kernel_constraint": null, "bias_constraint": null}, "name": "conv2d_990", "inbound_nodes": [[["mixed5", 0, 0, {}]]]}, {"class_name": "Conv2D", "config": {"name": "conv2d_993", "trainable": true, "dtype": "float32", "filters": 192, "kernel_size": [7, 1], "strides": [1, 1], "padding": "same", "data_format": "channels_last", "dilation_rate": [1, 1], "groups": 1, "activation": "linear", "use_bias": false, "kernel_initializer": {"class_name": "GlorotUniform", "config": {"seed": null}}, "bias_initializer": {"class_name": "Zeros", "config": {}}, "kernel_regularizer": null, "bias_regularizer": null, "activity_regularizer": null, "kernel_constraint": null, "bias_constraint": null}, "name": "conv2d_993", "inbound_nodes": [[["activation_992", 0, 0, {}]]]}, {"class_name": "Conv2D", "config": {"name": "conv2d_998", "trainable": true, "dtype": "float32", "filters": 192, "kernel_size": [1, 7], "strides": [1, 1], "padding": "same", "data_format": "channels_last", "dilation_rate": [1, 1], "groups": 1, "activation": "linear", "use_bias": false, "kernel_initializer": {"class_name": "GlorotUniform", "config": {"seed": null}}, "bias_initializer": {"class_name": "Zeros", "config": {}}, "kernel_regularizer": null, "bias_regularizer": null, "activity_regularizer": null, "kernel_constraint": null, "bias_constraint": null}, "name": "conv2d_998", "inbound_nodes": [[["activation_997", 0, 0, {}]]]}, {"class_name": "Conv2D", "config": {"name": "conv2d_999", "trainable": true, "dtype": "float32", "filters": 192, "kernel_size": [1, 1], "strides": [1, 1], "padding": "same", "data_format": "channels_last", "dilation_rate": [1, 1], "groups": 1, "activation": "linear", "use_bias": false, "kernel_initializer": {"class_name": "GlorotUniform", "config": {"seed": null}}, "bias_initializer": {"class_name": "Zeros", "config": {}}, "kernel_regularizer": null, "bias_regularizer": null, "activity_regularizer": null, "kernel_constraint": null, "bias_constraint": null}, "name": "conv2d_999", "inbound_nodes": [[["average_pooling2d_95", 0, 0, {}]]]}, {"class_name": "BatchNormalization", "config": {"name": "batch_normalization_990", "trainable": true, "dtype": "float32", "axis": [3], "momentum": 0.99, "epsilon": 0.001, "center": true, "scale": false, "beta_initializer": {"class_name": "Zeros", "config": {}}, "gamma_initializer": {"class_name": "Ones", "config": {}}, "moving_mean_initializer": {"class_name": "Zeros", "config": {}}, "moving_variance_initializer": {"class_name": "Ones", "config": {}}, "beta_regularizer": null, "gamma_regularizer": null, "beta_constraint": null, "gamma_constraint": null}, "name": "batch_normalization_990", "inbound_nodes": [[["conv2d_990", 0, 0, {}]]]}, {"class_name": "BatchNormalization", "config": {"name": "batch_normalization_993", "trainable": true, "dtype": "float32", "axis": [3], "momentum": 0.99, "epsilon": 0.001, "center": true, "scale": false, "beta_initializer": {"class_name": "Zeros", "config": {}}, "gamma_initializer": {"class_name": "Ones", "config": {}}, "moving_mean_initializer": {"class_name": "Zeros", "config": {}}, "moving_variance_initializer": {"class_name": "Ones", "config": {}}, "beta_regularizer": null, "gamma_regularizer": null, "beta_constraint": null, "gamma_constraint": null}, "name": "batch_normalization_993", "inbound_nodes": [[["conv2d_993", 0, 0, {}]]]}, {"class_name": "BatchNormalization", "config": {"name": "batch_normalization_998", "trainable": true, "dtype": "float32", "axis": [3], "momentum": 0.99, "epsilon": 0.001, "center": true, "scale": false, "beta_initializer": {"class_name": "Zeros", "config": {}}, "gamma_initializer": {"class_name": "Ones", "config": {}}, "moving_mean_initializer": {"class_name": "Zeros", "config": {}}, "moving_variance_initializer": {"class_name": "Ones", "config": {}}, "beta_regularizer": null, "gamma_regularizer": null, "beta_constraint": null, "gamma_constraint": null}, "name": "batch_normalization_998", "inbound_nodes": [[["conv2d_998", 0, 0, {}]]]}, {"class_name": "BatchNormalization", "config": {"name": "batch_normalization_999", "trainable": true, "dtype": "float32", "axis": [3], "momentum": 0.99, "epsilon": 0.001, "center": true, "scale": false, "beta_initializer": {"class_name": "Zeros", "config": {}}, "gamma_initializer": {"class_name": "Ones", "config": {}}, "moving_mean_initializer": {"class_name": "Zeros", "config": {}}, "moving_variance_initializer": {"class_name": "Ones", "config": {}}, "beta_regularizer": null, "gamma_regularizer": null, "beta_constraint": null, "gamma_constraint": null}, "name": "batch_normalization_999", "inbound_nodes": [[["conv2d_999", 0, 0, {}]]]}, {"class_name": "Activation", "config": {"name": "activation_990", "trainable": true, "dtype": "float32", "activation": "relu"}, "name": "activation_990", "inbound_nodes": [[["batch_normalization_990", 0, 0, {}]]]}, {"class_name": "Activation", "config": {"name": "activation_993", "trainable": true, "dtype": "float32", "activation": "relu"}, "name": "activation_993", "inbound_nodes": [[["batch_normalization_993", 0, 0, {}]]]}, {"class_name": "Activation", "config": {"name": "activation_998", "trainable": true, "dtype": "float32", "activation": "relu"}, "name": "activation_998", "inbound_nodes": [[["batch_normalization_998", 0, 0, {}]]]}, {"class_name": "Activation", "config": {"name": "activation_999", "trainable": true, "dtype": "float32", "activation": "relu"}, "name": "activation_999", "inbound_nodes": [[["batch_normalization_999", 0, 0, {}]]]}, {"class_name": "Concatenate", "config": {"name": "mixed6", "trainable": true, "dtype": "float32", "axis": 3}, "name": "mixed6", "inbound_nodes": [[["activation_990", 0, 0, {}], ["activation_993", 0, 0, {}], ["activation_998", 0, 0, {}], ["activation_999", 0, 0, {}]]]}, {"class_name": "Conv2D", "config": {"name": "conv2d_1004", "trainable": true, "dtype": "float32", "filters": 192, "kernel_size": [1, 1], "strides": [1, 1], "padding": "same", "data_format": "channels_last", "dilation_rate": [1, 1], "groups": 1, "activation": "linear", "use_bias": false, "kernel_initializer": {"class_name": "GlorotUniform", "config": {"seed": null}}, "bias_initializer": {"class_name": "Zeros", "config": {}}, "kernel_regularizer": null, "bias_regularizer": null, "activity_regularizer": null, "kernel_constraint": null, "bias_constraint": null}, "name": "conv2d_1004", "inbound_nodes": [[["mixed6", 0, 0, {}]]]}, {"class_name": "BatchNormalization", "config": {"name": "batch_normalization_1004", "trainable": true, "dtype": "float32", "axis": [3], "momentum": 0.99, "epsilon": 0.001, "center": true, "scale": false, "beta_initializer": {"class_name": "Zeros", "config": {}}, "gamma_initializer": {"class_name": "Ones", "config": {}}, "moving_mean_initializer": {"class_name": "Zeros", "config": {}}, "moving_variance_initializer": {"class_name": "Ones", "config": {}}, "beta_regularizer": null, "gamma_regularizer": null, "beta_constraint": null, "gamma_constraint": null}, "name": "batch_normalization_1004", "inbound_nodes": [[["conv2d_1004", 0, 0, {}]]]}, {"class_name": "Activation", "config": {"name": "activation_1004", "trainable": true, "dtype": "float32", "activation": "relu"}, "name": "activation_1004", "inbound_nodes": [[["batch_normalization_1004", 0, 0, {}]]]}, {"class_name": "Conv2D", "config": {"name": "conv2d_1005", "trainable": true, "dtype": "float32", "filters": 192, "kernel_size": [7, 1], "strides": [1, 1], "padding": "same", "data_format": "channels_last", "dilation_rate": [1, 1], "groups": 1, "activation": "linear", "use_bias": false, "kernel_initializer": {"class_name": "GlorotUniform", "config": {"seed": null}}, "bias_initializer": {"class_name": "Zeros", "config": {}}, "kernel_regularizer": null, "bias_regularizer": null, "activity_regularizer": null, "kernel_constraint": null, "bias_constraint": null}, "name": "conv2d_1005", "inbound_nodes": [[["activation_1004", 0, 0, {}]]]}, {"class_name": "BatchNormalization", "config": {"name": "batch_normalization_1005", "trainable": true, "dtype": "float32", "axis": [3], "momentum": 0.99, "epsilon": 0.001, "center": true, "scale": false, "beta_initializer": {"class_name": "Zeros", "config": {}}, "gamma_initializer": {"class_name": "Ones", "config": {}}, "moving_mean_initializer": {"class_name": "Zeros", "config": {}}, "moving_variance_initializer": {"class_name": "Ones", "config": {}}, "beta_regularizer": null, "gamma_regularizer": null, "beta_constraint": null, "gamma_constraint": null}, "name": "batch_normalization_1005", "inbound_nodes": [[["conv2d_1005", 0, 0, {}]]]}, {"class_name": "Activation", "config": {"name": "activation_1005", "trainable": true, "dtype": "float32", "activation": "relu"}, "name": "activation_1005", "inbound_nodes": [[["batch_normalization_1005", 0, 0, {}]]]}, {"class_name": "Conv2D", "config": {"name": "conv2d_1001", "trainable": true, "dtype": "float32", "filters": 192, "kernel_size": [1, 1], "strides": [1, 1], "padding": "same", "data_format": "channels_last", "dilation_rate": [1, 1], "groups": 1, "activation": "linear", "use_bias": false, "kernel_initializer": {"class_name": "GlorotUniform", "config": {"seed": null}}, "bias_initializer": {"class_name": "Zeros", "config": {}}, "kernel_regularizer": null, "bias_regularizer": null, "activity_regularizer": null, "kernel_constraint": null, "bias_constraint": null}, "name": "conv2d_1001", "inbound_nodes": [[["mixed6", 0, 0, {}]]]}, {"class_name": "Conv2D", "config": {"name": "conv2d_1006", "trainable": true, "dtype": "float32", "filters": 192, "kernel_size": [1, 7], "strides": [1, 1], "padding": "same", "data_format": "channels_last", "dilation_rate": [1, 1], "groups": 1, "activation": "linear", "use_bias": false, "kernel_initializer": {"class_name": "GlorotUniform", "config": {"seed": null}}, "bias_initializer": {"class_name": "Zeros", "config": {}}, "kernel_regularizer": null, "bias_regularizer": null, "activity_regularizer": null, "kernel_constraint": null, "bias_constraint": null}, "name": "conv2d_1006", "inbound_nodes": [[["activation_1005", 0, 0, {}]]]}, {"class_name": "BatchNormalization", "config": {"name": "batch_normalization_1001", "trainable": true, "dtype": "float32", "axis": [3], "momentum": 0.99, "epsilon": 0.001, "center": true, "scale": false, "beta_initializer": {"class_name": "Zeros", "config": {}}, "gamma_initializer": {"class_name": "Ones", "config": {}}, "moving_mean_initializer": {"class_name": "Zeros", "config": {}}, "moving_variance_initializer": {"class_name": "Ones", "config": {}}, "beta_regularizer": null, "gamma_regularizer": null, "beta_constraint": null, "gamma_constraint": null}, "name": "batch_normalization_1001", "inbound_nodes": [[["conv2d_1001", 0, 0, {}]]]}, {"class_name": "BatchNormalization", "config": {"name": "batch_normalization_1006", "trainable": true, "dtype": "float32", "axis": [3], "momentum": 0.99, "epsilon": 0.001, "center": true, "scale": false, "beta_initializer": {"class_name": "Zeros", "config": {}}, "gamma_initializer": {"class_name": "Ones", "config": {}}, "moving_mean_initializer": {"class_name": "Zeros", "config": {}}, "moving_variance_initializer": {"class_name": "Ones", "config": {}}, "beta_regularizer": null, "gamma_regularizer": null, "beta_constraint": null, "gamma_constraint": null}, "name": "batch_normalization_1006", "inbound_nodes": [[["conv2d_1006", 0, 0, {}]]]}, {"class_name": "Activation", "config": {"name": "activation_1001", "trainable": true, "dtype": "float32", "activation": "relu"}, "name": "activation_1001", "inbound_nodes": [[["batch_normalization_1001", 0, 0, {}]]]}, {"class_name": "Activation", "config": {"name": "activation_1006", "trainable": true, "dtype": "float32", "activation": "relu"}, "name": "activation_1006", "inbound_nodes": [[["batch_normalization_1006", 0, 0, {}]]]}, {"class_name": "Conv2D", "config": {"name": "conv2d_1002", "trainable": true, "dtype": "float32", "filters": 192, "kernel_size": [1, 7], "strides": [1, 1], "padding": "same", "data_format": "channels_last", "dilation_rate": [1, 1], "groups": 1, "activation": "linear", "use_bias": false, "kernel_initializer": {"class_name": "GlorotUniform", "config": {"seed": null}}, "bias_initializer": {"class_name": "Zeros", "config": {}}, "kernel_regularizer": null, "bias_regularizer": null, "activity_regularizer": null, "kernel_constraint": null, "bias_constraint": null}, "name": "conv2d_1002", "inbound_nodes": [[["activation_1001", 0, 0, {}]]]}, {"class_name": "Conv2D", "config": {"name": "conv2d_1007", "trainable": true, "dtype": "float32", "filters": 192, "kernel_size": [7, 1], "strides": [1, 1], "padding": "same", "data_format": "channels_last", "dilation_rate": [1, 1], "groups": 1, "activation": "linear", "use_bias": false, "kernel_initializer": {"class_name": "GlorotUniform", "config": {"seed": null}}, "bias_initializer": {"class_name": "Zeros", "config": {}}, "kernel_regularizer": null, "bias_regularizer": null, "activity_regularizer": null, "kernel_constraint": null, "bias_constraint": null}, "name": "conv2d_1007", "inbound_nodes": [[["activation_1006", 0, 0, {}]]]}, {"class_name": "BatchNormalization", "config": {"name": "batch_normalization_1002", "trainable": true, "dtype": "float32", "axis": [3], "momentum": 0.99, "epsilon": 0.001, "center": true, "scale": false, "beta_initializer": {"class_name": "Zeros", "config": {}}, "gamma_initializer": {"class_name": "Ones", "config": {}}, "moving_mean_initializer": {"class_name": "Zeros", "config": {}}, "moving_variance_initializer": {"class_name": "Ones", "config": {}}, "beta_regularizer": null, "gamma_regularizer": null, "beta_constraint": null, "gamma_constraint": null}, "name": "batch_normalization_1002", "inbound_nodes": [[["conv2d_1002", 0, 0, {}]]]}, {"class_name": "BatchNormalization", "config": {"name": "batch_normalization_1007", "trainable": true, "dtype": "float32", "axis": [3], "momentum": 0.99, "epsilon": 0.001, "center": true, "scale": false, "beta_initializer": {"class_name": "Zeros", "config": {}}, "gamma_initializer": {"class_name": "Ones", "config": {}}, "moving_mean_initializer": {"class_name": "Zeros", "config": {}}, "moving_variance_initializer": {"class_name": "Ones", "config": {}}, "beta_regularizer": null, "gamma_regularizer": null, "beta_constraint": null, "gamma_constraint": null}, "name": "batch_normalization_1007", "inbound_nodes": [[["conv2d_1007", 0, 0, {}]]]}, {"class_name": "Activation", "config": {"name": "activation_1002", "trainable": true, "dtype": "float32", "activation": "relu"}, "name": "activation_1002", "inbound_nodes": [[["batch_normalization_1002", 0, 0, {}]]]}, {"class_name": "Activation", "config": {"name": "activation_1007", "trainable": true, "dtype": "float32", "activation": "relu"}, "name": "activation_1007", "inbound_nodes": [[["batch_normalization_1007", 0, 0, {}]]]}, {"class_name": "AveragePooling2D", "config": {"name": "average_pooling2d_96", "trainable": true, "dtype": "float32", "pool_size": [3, 3], "padding": "same", "strides": [1, 1], "data_format": "channels_last"}, "name": "average_pooling2d_96", "inbound_nodes": [[["mixed6", 0, 0, {}]]]}, {"class_name": "Conv2D", "config": {"name": "conv2d_1000", "trainable": true, "dtype": "float32", "filters": 192, "kernel_size": [1, 1], "strides": [1, 1], "padding": "same", "data_format": "channels_last", "dilation_rate": [1, 1], "groups": 1, "activation": "linear", "use_bias": false, "kernel_initializer": {"class_name": "GlorotUniform", "config": {"seed": null}}, "bias_initializer": {"class_name": "Zeros", "config": {}}, "kernel_regularizer": null, "bias_regularizer": null, "activity_regularizer": null, "kernel_constraint": null, "bias_constraint": null}, "name": "conv2d_1000", "inbound_nodes": [[["mixed6", 0, 0, {}]]]}, {"class_name": "Conv2D", "config": {"name": "conv2d_1003", "trainable": true, "dtype": "float32", "filters": 192, "kernel_size": [7, 1], "strides": [1, 1], "padding": "same", "data_format": "channels_last", "dilation_rate": [1, 1], "groups": 1, "activation": "linear", "use_bias": false, "kernel_initializer": {"class_name": "GlorotUniform", "config": {"seed": null}}, "bias_initializer": {"class_name": "Zeros", "config": {}}, "kernel_regularizer": null, "bias_regularizer": null, "activity_regularizer": null, "kernel_constraint": null, "bias_constraint": null}, "name": "conv2d_1003", "inbound_nodes": [[["activation_1002", 0, 0, {}]]]}, {"class_name": "Conv2D", "config": {"name": "conv2d_1008", "trainable": true, "dtype": "float32", "filters": 192, "kernel_size": [1, 7], "strides": [1, 1], "padding": "same", "data_format": "channels_last", "dilation_rate": [1, 1], "groups": 1, "activation": "linear", "use_bias": false, "kernel_initializer": {"class_name": "GlorotUniform", "config": {"seed": null}}, "bias_initializer": {"class_name": "Zeros", "config": {}}, "kernel_regularizer": null, "bias_regularizer": null, "activity_regularizer": null, "kernel_constraint": null, "bias_constraint": null}, "name": "conv2d_1008", "inbound_nodes": [[["activation_1007", 0, 0, {}]]]}, {"class_name": "Conv2D", "config": {"name": "conv2d_1009", "trainable": true, "dtype": "float32", "filters": 192, "kernel_size": [1, 1], "strides": [1, 1], "padding": "same", "data_format": "channels_last", "dilation_rate": [1, 1], "groups": 1, "activation": "linear", "use_bias": false, "kernel_initializer": {"class_name": "GlorotUniform", "config": {"seed": null}}, "bias_initializer": {"class_name": "Zeros", "config": {}}, "kernel_regularizer": null, "bias_regularizer": null, "activity_regularizer": null, "kernel_constraint": null, "bias_constraint": null}, "name": "conv2d_1009", "inbound_nodes": [[["average_pooling2d_96", 0, 0, {}]]]}, {"class_name": "BatchNormalization", "config": {"name": "batch_normalization_1000", "trainable": true, "dtype": "float32", "axis": [3], "momentum": 0.99, "epsilon": 0.001, "center": true, "scale": false, "beta_initializer": {"class_name": "Zeros", "config": {}}, "gamma_initializer": {"class_name": "Ones", "config": {}}, "moving_mean_initializer": {"class_name": "Zeros", "config": {}}, "moving_variance_initializer": {"class_name": "Ones", "config": {}}, "beta_regularizer": null, "gamma_regularizer": null, "beta_constraint": null, "gamma_constraint": null}, "name": "batch_normalization_1000", "inbound_nodes": [[["conv2d_1000", 0, 0, {}]]]}, {"class_name": "BatchNormalization", "config": {"name": "batch_normalization_1003", "trainable": true, "dtype": "float32", "axis": [3], "momentum": 0.99, "epsilon": 0.001, "center": true, "scale": false, "beta_initializer": {"class_name": "Zeros", "config": {}}, "gamma_initializer": {"class_name": "Ones", "config": {}}, "moving_mean_initializer": {"class_name": "Zeros", "config": {}}, "moving_variance_initializer": {"class_name": "Ones", "config": {}}, "beta_regularizer": null, "gamma_regularizer": null, "beta_constraint": null, "gamma_constraint": null}, "name": "batch_normalization_1003", "inbound_nodes": [[["conv2d_1003", 0, 0, {}]]]}, {"class_name": "BatchNormalization", "config": {"name": "batch_normalization_1008", "trainable": true, "dtype": "float32", "axis": [3], "momentum": 0.99, "epsilon": 0.001, "center": true, "scale": false, "beta_initializer": {"class_name": "Zeros", "config": {}}, "gamma_initializer": {"class_name": "Ones", "config": {}}, "moving_mean_initializer": {"class_name": "Zeros", "config": {}}, "moving_variance_initializer": {"class_name": "Ones", "config": {}}, "beta_regularizer": null, "gamma_regularizer": null, "beta_constraint": null, "gamma_constraint": null}, "name": "batch_normalization_1008", "inbound_nodes": [[["conv2d_1008", 0, 0, {}]]]}, {"class_name": "BatchNormalization", "config": {"name": "batch_normalization_1009", "trainable": true, "dtype": "float32", "axis": [3], "momentum": 0.99, "epsilon": 0.001, "center": true, "scale": false, "beta_initializer": {"class_name": "Zeros", "config": {}}, "gamma_initializer": {"class_name": "Ones", "config": {}}, "moving_mean_initializer": {"class_name": "Zeros", "config": {}}, "moving_variance_initializer": {"class_name": "Ones", "config": {}}, "beta_regularizer": null, "gamma_regularizer": null, "beta_constraint": null, "gamma_constraint": null}, "name": "batch_normalization_1009", "inbound_nodes": [[["conv2d_1009", 0, 0, {}]]]}, {"class_name": "Activation", "config": {"name": "activation_1000", "trainable": true, "dtype": "float32", "activation": "relu"}, "name": "activation_1000", "inbound_nodes": [[["batch_normalization_1000", 0, 0, {}]]]}, {"class_name": "Activation", "config": {"name": "activation_1003", "trainable": true, "dtype": "float32", "activation": "relu"}, "name": "activation_1003", "inbound_nodes": [[["batch_normalization_1003", 0, 0, {}]]]}, {"class_name": "Activation", "config": {"name": "activation_1008", "trainable": true, "dtype": "float32", "activation": "relu"}, "name": "activation_1008", "inbound_nodes": [[["batch_normalization_1008", 0, 0, {}]]]}, {"class_name": "Activation", "config": {"name": "activation_1009", "trainable": true, "dtype": "float32", "activation": "relu"}, "name": "activation_1009", "inbound_nodes": [[["batch_normalization_1009", 0, 0, {}]]]}, {"class_name": "Concatenate", "config": {"name": "mixed7", "trainable": true, "dtype": "float32", "axis": 3}, "name": "mixed7", "inbound_nodes": [[["activation_1000", 0, 0, {}], ["activation_1003", 0, 0, {}], ["activation_1008", 0, 0, {}], ["activation_1009", 0, 0, {}]]]}, {"class_name": "Conv2D", "config": {"name": "conv2d_1012", "trainable": true, "dtype": "float32", "filters": 192, "kernel_size": [1, 1], "strides": [1, 1], "padding": "same", "data_format": "channels_last", "dilation_rate": [1, 1], "groups": 1, "activation": "linear", "use_bias": false, "kernel_initializer": {"class_name": "GlorotUniform", "config": {"seed": null}}, "bias_initializer": {"class_name": "Zeros", "config": {}}, "kernel_regularizer": null, "bias_regularizer": null, "activity_regularizer": null, "kernel_constraint": null, "bias_constraint": null}, "name": "conv2d_1012", "inbound_nodes": [[["mixed7", 0, 0, {}]]]}, {"class_name": "BatchNormalization", "config": {"name": "batch_normalization_1012", "trainable": true, "dtype": "float32", "axis": [3], "momentum": 0.99, "epsilon": 0.001, "center": true, "scale": false, "beta_initializer": {"class_name": "Zeros", "config": {}}, "gamma_initializer": {"class_name": "Ones", "config": {}}, "moving_mean_initializer": {"class_name": "Zeros", "config": {}}, "moving_variance_initializer": {"class_name": "Ones", "config": {}}, "beta_regularizer": null, "gamma_regularizer": null, "beta_constraint": null, "gamma_constraint": null}, "name": "batch_normalization_1012", "inbound_nodes": [[["conv2d_1012", 0, 0, {}]]]}, {"class_name": "Activation", "config": {"name": "activation_1012", "trainable": true, "dtype": "float32", "activation": "relu"}, "name": "activation_1012", "inbound_nodes": [[["batch_normalization_1012", 0, 0, {}]]]}, {"class_name": "Conv2D", "config": {"name": "conv2d_1013", "trainable": true, "dtype": "float32", "filters": 192, "kernel_size": [1, 7], "strides": [1, 1], "padding": "same", "data_format": "channels_last", "dilation_rate": [1, 1], "groups": 1, "activation": "linear", "use_bias": false, "kernel_initializer": {"class_name": "GlorotUniform", "config": {"seed": null}}, "bias_initializer": {"class_name": "Zeros", "config": {}}, "kernel_regularizer": null, "bias_regularizer": null, "activity_regularizer": null, "kernel_constraint": null, "bias_constraint": null}, "name": "conv2d_1013", "inbound_nodes": [[["activation_1012", 0, 0, {}]]]}, {"class_name": "BatchNormalization", "config": {"name": "batch_normalization_1013", "trainable": true, "dtype": "float32", "axis": [3], "momentum": 0.99, "epsilon": 0.001, "center": true, "scale": false, "beta_initializer": {"class_name": "Zeros", "config": {}}, "gamma_initializer": {"class_name": "Ones", "config": {}}, "moving_mean_initializer": {"class_name": "Zeros", "config": {}}, "moving_variance_initializer": {"class_name": "Ones", "config": {}}, "beta_regularizer": null, "gamma_regularizer": null, "beta_constraint": null, "gamma_constraint": null}, "name": "batch_normalization_1013", "inbound_nodes": [[["conv2d_1013", 0, 0, {}]]]}, {"class_name": "Activation", "config": {"name": "activation_1013", "trainable": true, "dtype": "float32", "activation": "relu"}, "name": "activation_1013", "inbound_nodes": [[["batch_normalization_1013", 0, 0, {}]]]}, {"class_name": "Conv2D", "config": {"name": "conv2d_1010", "trainable": true, "dtype": "float32", "filters": 192, "kernel_size": [1, 1], "strides": [1, 1], "padding": "same", "data_format": "channels_last", "dilation_rate": [1, 1], "groups": 1, "activation": "linear", "use_bias": false, "kernel_initializer": {"class_name": "GlorotUniform", "config": {"seed": null}}, "bias_initializer": {"class_name": "Zeros", "config": {}}, "kernel_regularizer": null, "bias_regularizer": null, "activity_regularizer": null, "kernel_constraint": null, "bias_constraint": null}, "name": "conv2d_1010", "inbound_nodes": [[["mixed7", 0, 0, {}]]]}, {"class_name": "Conv2D", "config": {"name": "conv2d_1014", "trainable": true, "dtype": "float32", "filters": 192, "kernel_size": [7, 1], "strides": [1, 1], "padding": "same", "data_format": "channels_last", "dilation_rate": [1, 1], "groups": 1, "activation": "linear", "use_bias": false, "kernel_initializer": {"class_name": "GlorotUniform", "config": {"seed": null}}, "bias_initializer": {"class_name": "Zeros", "config": {}}, "kernel_regularizer": null, "bias_regularizer": null, "activity_regularizer": null, "kernel_constraint": null, "bias_constraint": null}, "name": "conv2d_1014", "inbound_nodes": [[["activation_1013", 0, 0, {}]]]}, {"class_name": "BatchNormalization", "config": {"name": "batch_normalization_1010", "trainable": true, "dtype": "float32", "axis": [3], "momentum": 0.99, "epsilon": 0.001, "center": true, "scale": false, "beta_initializer": {"class_name": "Zeros", "config": {}}, "gamma_initializer": {"class_name": "Ones", "config": {}}, "moving_mean_initializer": {"class_name": "Zeros", "config": {}}, "moving_variance_initializer": {"class_name": "Ones", "config": {}}, "beta_regularizer": null, "gamma_regularizer": null, "beta_constraint": null, "gamma_constraint": null}, "name": "batch_normalization_1010", "inbound_nodes": [[["conv2d_1010", 0, 0, {}]]]}, {"class_name": "BatchNormalization", "config": {"name": "batch_normalization_1014", "trainable": true, "dtype": "float32", "axis": [3], "momentum": 0.99, "epsilon": 0.001, "center": true, "scale": false, "beta_initializer": {"class_name": "Zeros", "config": {}}, "gamma_initializer": {"class_name": "Ones", "config": {}}, "moving_mean_initializer": {"class_name": "Zeros", "config": {}}, "moving_variance_initializer": {"class_name": "Ones", "config": {}}, "beta_regularizer": null, "gamma_regularizer": null, "beta_constraint": null, "gamma_constraint": null}, "name": "batch_normalization_1014", "inbound_nodes": [[["conv2d_1014", 0, 0, {}]]]}, {"class_name": "Activation", "config": {"name": "activation_1010", "trainable": true, "dtype": "float32", "activation": "relu"}, "name": "activation_1010", "inbound_nodes": [[["batch_normalization_1010", 0, 0, {}]]]}, {"class_name": "Activation", "config": {"name": "activation_1014", "trainable": true, "dtype": "float32", "activation": "relu"}, "name": "activation_1014", "inbound_nodes": [[["batch_normalization_1014", 0, 0, {}]]]}, {"class_name": "Conv2D", "config": {"name": "conv2d_1011", "trainable": true, "dtype": "float32", "filters": 320, "kernel_size": [3, 3], "strides": [2, 2], "padding": "valid", "data_format": "channels_last", "dilation_rate": [1, 1], "groups": 1, "activation": "linear", "use_bias": false, "kernel_initializer": {"class_name": "GlorotUniform", "config": {"seed": null}}, "bias_initializer": {"class_name": "Zeros", "config": {}}, "kernel_regularizer": null, "bias_regularizer": null, "activity_regularizer": null, "kernel_constraint": null, "bias_constraint": null}, "name": "conv2d_1011", "inbound_nodes": [[["activation_1010", 0, 0, {}]]]}, {"class_name": "Conv2D", "config": {"name": "conv2d_1015", "trainable": true, "dtype": "float32", "filters": 192, "kernel_size": [3, 3], "strides": [2, 2], "padding": "valid", "data_format": "channels_last", "dilation_rate": [1, 1], "groups": 1, "activation": "linear", "use_bias": false, "kernel_initializer": {"class_name": "GlorotUniform", "config": {"seed": null}}, "bias_initializer": {"class_name": "Zeros", "config": {}}, "kernel_regularizer": null, "bias_regularizer": null, "activity_regularizer": null, "kernel_constraint": null, "bias_constraint": null}, "name": "conv2d_1015", "inbound_nodes": [[["activation_1014", 0, 0, {}]]]}, {"class_name": "BatchNormalization", "config": {"name": "batch_normalization_1011", "trainable": true, "dtype": "float32", "axis": [3], "momentum": 0.99, "epsilon": 0.001, "center": true, "scale": false, "beta_initializer": {"class_name": "Zeros", "config": {}}, "gamma_initializer": {"class_name": "Ones", "config": {}}, "moving_mean_initializer": {"class_name": "Zeros", "config": {}}, "moving_variance_initializer": {"class_name": "Ones", "config": {}}, "beta_regularizer": null, "gamma_regularizer": null, "beta_constraint": null, "gamma_constraint": null}, "name": "batch_normalization_1011", "inbound_nodes": [[["conv2d_1011", 0, 0, {}]]]}, {"class_name": "BatchNormalization", "config": {"name": "batch_normalization_1015", "trainable": true, "dtype": "float32", "axis": [3], "momentum": 0.99, "epsilon": 0.001, "center": true, "scale": false, "beta_initializer": {"class_name": "Zeros", "config": {}}, "gamma_initializer": {"class_name": "Ones", "config": {}}, "moving_mean_initializer": {"class_name": "Zeros", "config": {}}, "moving_variance_initializer": {"class_name": "Ones", "config": {}}, "beta_regularizer": null, "gamma_regularizer": null, "beta_constraint": null, "gamma_constraint": null}, "name": "batch_normalization_1015", "inbound_nodes": [[["conv2d_1015", 0, 0, {}]]]}, {"class_name": "Activation", "config": {"name": "activation_1011", "trainable": true, "dtype": "float32", "activation": "relu"}, "name": "activation_1011", "inbound_nodes": [[["batch_normalization_1011", 0, 0, {}]]]}, {"class_name": "Activation", "config": {"name": "activation_1015", "trainable": true, "dtype": "float32", "activation": "relu"}, "name": "activation_1015", "inbound_nodes": [[["batch_normalization_1015", 0, 0, {}]]]}, {"class_name": "MaxPooling2D", "config": {"name": "max_pooling2d_43", "trainable": true, "dtype": "float32", "pool_size": [3, 3], "padding": "valid", "strides": [2, 2], "data_format": "channels_last"}, "name": "max_pooling2d_43", "inbound_nodes": [[["mixed7", 0, 0, {}]]]}, {"class_name": "Concatenate", "config": {"name": "mixed8", "trainable": true, "dtype": "float32", "axis": 3}, "name": "mixed8", "inbound_nodes": [[["activation_1011", 0, 0, {}], ["activation_1015", 0, 0, {}], ["max_pooling2d_43", 0, 0, {}]]]}, {"class_name": "Conv2D", "config": {"name": "conv2d_1020", "trainable": true, "dtype": "float32", "filters": 448, "kernel_size": [1, 1], "strides": [1, 1], "padding": "same", "data_format": "channels_last", "dilation_rate": [1, 1], "groups": 1, "activation": "linear", "use_bias": false, "kernel_initializer": {"class_name": "GlorotUniform", "config": {"seed": null}}, "bias_initializer": {"class_name": "Zeros", "config": {}}, "kernel_regularizer": null, "bias_regularizer": null, "activity_regularizer": null, "kernel_constraint": null, "bias_constraint": null}, "name": "conv2d_1020", "inbound_nodes": [[["mixed8", 0, 0, {}]]]}, {"class_name": "BatchNormalization", "config": {"name": "batch_normalization_1020", "trainable": true, "dtype": "float32", "axis": [3], "momentum": 0.99, "epsilon": 0.001, "center": true, "scale": false, "beta_initializer": {"class_name": "Zeros", "config": {}}, "gamma_initializer": {"class_name": "Ones", "config": {}}, "moving_mean_initializer": {"class_name": "Zeros", "config": {}}, "moving_variance_initializer": {"class_name": "Ones", "config": {}}, "beta_regularizer": null, "gamma_regularizer": null, "beta_constraint": null, "gamma_constraint": null}, "name": "batch_normalization_1020", "inbound_nodes": [[["conv2d_1020", 0, 0, {}]]]}, {"class_name": "Activation", "config": {"name": "activation_1020", "trainable": true, "dtype": "float32", "activation": "relu"}, "name": "activation_1020", "inbound_nodes": [[["batch_normalization_1020", 0, 0, {}]]]}, {"class_name": "Conv2D", "config": {"name": "conv2d_1017", "trainable": true, "dtype": "float32", "filters": 384, "kernel_size": [1, 1], "strides": [1, 1], "padding": "same", "data_format": "channels_last", "dilation_rate": [1, 1], "groups": 1, "activation": "linear", "use_bias": false, "kernel_initializer": {"class_name": "GlorotUniform", "config": {"seed": null}}, "bias_initializer": {"class_name": "Zeros", "config": {}}, "kernel_regularizer": null, "bias_regularizer": null, "activity_regularizer": null, "kernel_constraint": null, "bias_constraint": null}, "name": "conv2d_1017", "inbound_nodes": [[["mixed8", 0, 0, {}]]]}, {"class_name": "Conv2D", "config": {"name": "conv2d_1021", "trainable": true, "dtype": "float32", "filters": 384, "kernel_size": [3, 3], "strides": [1, 1], "padding": "same", "data_format": "channels_last", "dilation_rate": [1, 1], "groups": 1, "activation": "linear", "use_bias": false, "kernel_initializer": {"class_name": "GlorotUniform", "config": {"seed": null}}, "bias_initializer": {"class_name": "Zeros", "config": {}}, "kernel_regularizer": null, "bias_regularizer": null, "activity_regularizer": null, "kernel_constraint": null, "bias_constraint": null}, "name": "conv2d_1021", "inbound_nodes": [[["activation_1020", 0, 0, {}]]]}, {"class_name": "BatchNormalization", "config": {"name": "batch_normalization_1017", "trainable": true, "dtype": "float32", "axis": [3], "momentum": 0.99, "epsilon": 0.001, "center": true, "scale": false, "beta_initializer": {"class_name": "Zeros", "config": {}}, "gamma_initializer": {"class_name": "Ones", "config": {}}, "moving_mean_initializer": {"class_name": "Zeros", "config": {}}, "moving_variance_initializer": {"class_name": "Ones", "config": {}}, "beta_regularizer": null, "gamma_regularizer": null, "beta_constraint": null, "gamma_constraint": null}, "name": "batch_normalization_1017", "inbound_nodes": [[["conv2d_1017", 0, 0, {}]]]}, {"class_name": "BatchNormalization", "config": {"name": "batch_normalization_1021", "trainable": true, "dtype": "float32", "axis": [3], "momentum": 0.99, "epsilon": 0.001, "center": true, "scale": false, "beta_initializer": {"class_name": "Zeros", "config": {}}, "gamma_initializer": {"class_name": "Ones", "config": {}}, "moving_mean_initializer": {"class_name": "Zeros", "config": {}}, "moving_variance_initializer": {"class_name": "Ones", "config": {}}, "beta_regularizer": null, "gamma_regularizer": null, "beta_constraint": null, "gamma_constraint": null}, "name": "batch_normalization_1021", "inbound_nodes": [[["conv2d_1021", 0, 0, {}]]]}, {"class_name": "Activation", "config": {"name": "activation_1017", "trainable": true, "dtype": "float32", "activation": "relu"}, "name": "activation_1017", "inbound_nodes": [[["batch_normalization_1017", 0, 0, {}]]]}, {"class_name": "Activation", "config": {"name": "activation_1021", "trainable": true, "dtype": "float32", "activation": "relu"}, "name": "activation_1021", "inbound_nodes": [[["batch_normalization_1021", 0, 0, {}]]]}, {"class_name": "Conv2D", "config": {"name": "conv2d_1018", "trainable": true, "dtype": "float32", "filters": 384, "kernel_size": [1, 3], "strides": [1, 1], "padding": "same", "data_format": "channels_last", "dilation_rate": [1, 1], "groups": 1, "activation": "linear", "use_bias": false, "kernel_initializer": {"class_name": "GlorotUniform", "config": {"seed": null}}, "bias_initializer": {"class_name": "Zeros", "config": {}}, "kernel_regularizer": null, "bias_regularizer": null, "activity_regularizer": null, "kernel_constraint": null, "bias_constraint": null}, "name": "conv2d_1018", "inbound_nodes": [[["activation_1017", 0, 0, {}]]]}, {"class_name": "Conv2D", "config": {"name": "conv2d_1019", "trainable": true, "dtype": "float32", "filters": 384, "kernel_size": [3, 1], "strides": [1, 1], "padding": "same", "data_format": "channels_last", "dilation_rate": [1, 1], "groups": 1, "activation": "linear", "use_bias": false, "kernel_initializer": {"class_name": "GlorotUniform", "config": {"seed": null}}, "bias_initializer": {"class_name": "Zeros", "config": {}}, "kernel_regularizer": null, "bias_regularizer": null, "activity_regularizer": null, "kernel_constraint": null, "bias_constraint": null}, "name": "conv2d_1019", "inbound_nodes": [[["activation_1017", 0, 0, {}]]]}, {"class_name": "Conv2D", "config": {"name": "conv2d_1022", "trainable": true, "dtype": "float32", "filters": 384, "kernel_size": [1, 3], "strides": [1, 1], "padding": "same", "data_format": "channels_last", "dilation_rate": [1, 1], "groups": 1, "activation": "linear", "use_bias": false, "kernel_initializer": {"class_name": "GlorotUniform", "config": {"seed": null}}, "bias_initializer": {"class_name": "Zeros", "config": {}}, "kernel_regularizer": null, "bias_regularizer": null, "activity_regularizer": null, "kernel_constraint": null, "bias_constraint": null}, "name": "conv2d_1022", "inbound_nodes": [[["activation_1021", 0, 0, {}]]]}, {"class_name": "Conv2D", "config": {"name": "conv2d_1023", "trainable": true, "dtype": "float32", "filters": 384, "kernel_size": [3, 1], "strides": [1, 1], "padding": "same", "data_format": "channels_last", "dilation_rate": [1, 1], "groups": 1, "activation": "linear", "use_bias": false, "kernel_initializer": {"class_name": "GlorotUniform", "config": {"seed": null}}, "bias_initializer": {"class_name": "Zeros", "config": {}}, "kernel_regularizer": null, "bias_regularizer": null, "activity_regularizer": null, "kernel_constraint": null, "bias_constraint": null}, "name": "conv2d_1023", "inbound_nodes": [[["activation_1021", 0, 0, {}]]]}, {"class_name": "AveragePooling2D", "config": {"name": "average_pooling2d_97", "trainable": true, "dtype": "float32", "pool_size": [3, 3], "padding": "same", "strides": [1, 1], "data_format": "channels_last"}, "name": "average_pooling2d_97", "inbound_nodes": [[["mixed8", 0, 0, {}]]]}, {"class_name": "Conv2D", "config": {"name": "conv2d_1016", "trainable": true, "dtype": "float32", "filters": 320, "kernel_size": [1, 1], "strides": [1, 1], "padding": "same", "data_format": "channels_last", "dilation_rate": [1, 1], "groups": 1, "activation": "linear", "use_bias": false, "kernel_initializer": {"class_name": "GlorotUniform", "config": {"seed": null}}, "bias_initializer": {"class_name": "Zeros", "config": {}}, "kernel_regularizer": null, "bias_regularizer": null, "activity_regularizer": null, "kernel_constraint": null, "bias_constraint": null}, "name": "conv2d_1016", "inbound_nodes": [[["mixed8", 0, 0, {}]]]}, {"class_name": "BatchNormalization", "config": {"name": "batch_normalization_1018", "trainable": true, "dtype": "float32", "axis": [3], "momentum": 0.99, "epsilon": 0.001, "center": true, "scale": false, "beta_initializer": {"class_name": "Zeros", "config": {}}, "gamma_initializer": {"class_name": "Ones", "config": {}}, "moving_mean_initializer": {"class_name": "Zeros", "config": {}}, "moving_variance_initializer": {"class_name": "Ones", "config": {}}, "beta_regularizer": null, "gamma_regularizer": null, "beta_constraint": null, "gamma_constraint": null}, "name": "batch_normalization_1018", "inbound_nodes": [[["conv2d_1018", 0, 0, {}]]]}, {"class_name": "BatchNormalization", "config": {"name": "batch_normalization_1019", "trainable": true, "dtype": "float32", "axis": [3], "momentum": 0.99, "epsilon": 0.001, "center": true, "scale": false, "beta_initializer": {"class_name": "Zeros", "config": {}}, "gamma_initializer": {"class_name": "Ones", "config": {}}, "moving_mean_initializer": {"class_name": "Zeros", "config": {}}, "moving_variance_initializer": {"class_name": "Ones", "config": {}}, "beta_regularizer": null, "gamma_regularizer": null, "beta_constraint": null, "gamma_constraint": null}, "name": "batch_normalization_1019", "inbound_nodes": [[["conv2d_1019", 0, 0, {}]]]}, {"class_name": "BatchNormalization", "config": {"name": "batch_normalization_1022", "trainable": true, "dtype": "float32", "axis": [3], "momentum": 0.99, "epsilon": 0.001, "center": true, "scale": false, "beta_initializer": {"class_name": "Zeros", "config": {}}, "gamma_initializer": {"class_name": "Ones", "config": {}}, "moving_mean_initializer": {"class_name": "Zeros", "config": {}}, "moving_variance_initializer": {"class_name": "Ones", "config": {}}, "beta_regularizer": null, "gamma_regularizer": null, "beta_constraint": null, "gamma_constraint": null}, "name": "batch_normalization_1022", "inbound_nodes": [[["conv2d_1022", 0, 0, {}]]]}, {"class_name": "BatchNormalization", "config": {"name": "batch_normalization_1023", "trainable": true, "dtype": "float32", "axis": [3], "momentum": 0.99, "epsilon": 0.001, "center": true, "scale": false, "beta_initializer": {"class_name": "Zeros", "config": {}}, "gamma_initializer": {"class_name": "Ones", "config": {}}, "moving_mean_initializer": {"class_name": "Zeros", "config": {}}, "moving_variance_initializer": {"class_name": "Ones", "config": {}}, "beta_regularizer": null, "gamma_regularizer": null, "beta_constraint": null, "gamma_constraint": null}, "name": "batch_normalization_1023", "inbound_nodes": [[["conv2d_1023", 0, 0, {}]]]}, {"class_name": "Conv2D", "config": {"name": "conv2d_1024", "trainable": true, "dtype": "float32", "filters": 192, "kernel_size": [1, 1], "strides": [1, 1], "padding": "same", "data_format": "channels_last", "dilation_rate": [1, 1], "groups": 1, "activation": "linear", "use_bias": false, "kernel_initializer": {"class_name": "GlorotUniform", "config": {"seed": null}}, "bias_initializer": {"class_name": "Zeros", "config": {}}, "kernel_regularizer": null, "bias_regularizer": null, "activity_regularizer": null, "kernel_constraint": null, "bias_constraint": null}, "name": "conv2d_1024", "inbound_nodes": [[["average_pooling2d_97", 0, 0, {}]]]}, {"class_name": "BatchNormalization", "config": {"name": "batch_normalization_1016", "trainable": true, "dtype": "float32", "axis": [3], "momentum": 0.99, "epsilon": 0.001, "center": true, "scale": false, "beta_initializer": {"class_name": "Zeros", "config": {}}, "gamma_initializer": {"class_name": "Ones", "config": {}}, "moving_mean_initializer": {"class_name": "Zeros", "config": {}}, "moving_variance_initializer": {"class_name": "Ones", "config": {}}, "beta_regularizer": null, "gamma_regularizer": null, "beta_constraint": null, "gamma_constraint": null}, "name": "batch_normalization_1016", "inbound_nodes": [[["conv2d_1016", 0, 0, {}]]]}, {"class_name": "Activation", "config": {"name": "activation_1018", "trainable": true, "dtype": "float32", "activation": "relu"}, "name": "activation_1018", "inbound_nodes": [[["batch_normalization_1018", 0, 0, {}]]]}, {"class_name": "Activation", "config": {"name": "activation_1019", "trainable": true, "dtype": "float32", "activation": "relu"}, "name": "activation_1019", "inbound_nodes": [[["batch_normalization_1019", 0, 0, {}]]]}, {"class_name": "Activation", "config": {"name": "activation_1022", "trainable": true, "dtype": "float32", "activation": "relu"}, "name": "activation_1022", "inbound_nodes": [[["batch_normalization_1022", 0, 0, {}]]]}, {"class_name": "Activation", "config": {"name": "activation_1023", "trainable": true, "dtype": "float32", "activation": "relu"}, "name": "activation_1023", "inbound_nodes": [[["batch_normalization_1023", 0, 0, {}]]]}, {"class_name": "BatchNormalization", "config": {"name": "batch_normalization_1024", "trainable": true, "dtype": "float32", "axis": [3], "momentum": 0.99, "epsilon": 0.001, "center": true, "scale": false, "beta_initializer": {"class_name": "Zeros", "config": {}}, "gamma_initializer": {"class_name": "Ones", "config": {}}, "moving_mean_initializer": {"class_name": "Zeros", "config": {}}, "moving_variance_initializer": {"class_name": "Ones", "config": {}}, "beta_regularizer": null, "gamma_regularizer": null, "beta_constraint": null, "gamma_constraint": null}, "name": "batch_normalization_1024", "inbound_nodes": [[["conv2d_1024", 0, 0, {}]]]}, {"class_name": "Activation", "config": {"name": "activation_1016", "trainable": true, "dtype": "float32", "activation": "relu"}, "name": "activation_1016", "inbound_nodes": [[["batch_normalization_1016", 0, 0, {}]]]}, {"class_name": "Concatenate", "config": {"name": "mixed9_0", "trainable": true, "dtype": "float32", "axis": 3}, "name": "mixed9_0", "inbound_nodes": [[["activation_1018", 0, 0, {}], ["activation_1019", 0, 0, {}]]]}, {"class_name": "Concatenate", "config": {"name": "concatenate_20", "trainable": true, "dtype": "float32", "axis": 3}, "name": "concatenate_20", "inbound_nodes": [[["activation_1022", 0, 0, {}], ["activation_1023", 0, 0, {}]]]}, {"class_name": "Activation", "config": {"name": "activation_1024", "trainable": true, "dtype": "float32", "activation": "relu"}, "name": "activation_1024", "inbound_nodes": [[["batch_normalization_1024", 0, 0, {}]]]}, {"class_name": "Concatenate", "config": {"name": "mixed9", "trainable": true, "dtype": "float32", "axis": 3}, "name": "mixed9", "inbound_nodes": [[["activation_1016", 0, 0, {}], ["mixed9_0", 0, 0, {}], ["concatenate_20", 0, 0, {}], ["activation_1024", 0, 0, {}]]]}, {"class_name": "Conv2D", "config": {"name": "conv2d_1029", "trainable": true, "dtype": "float32", "filters": 448, "kernel_size": [1, 1], "strides": [1, 1], "padding": "same", "data_format": "channels_last", "dilation_rate": [1, 1], "groups": 1, "activation": "linear", "use_bias": false, "kernel_initializer": {"class_name": "GlorotUniform", "config": {"seed": null}}, "bias_initializer": {"class_name": "Zeros", "config": {}}, "kernel_regularizer": null, "bias_regularizer": null, "activity_regularizer": null, "kernel_constraint": null, "bias_constraint": null}, "name": "conv2d_1029", "inbound_nodes": [[["mixed9", 0, 0, {}]]]}, {"class_name": "BatchNormalization", "config": {"name": "batch_normalization_1029", "trainable": true, "dtype": "float32", "axis": [3], "momentum": 0.99, "epsilon": 0.001, "center": true, "scale": false, "beta_initializer": {"class_name": "Zeros", "config": {}}, "gamma_initializer": {"class_name": "Ones", "config": {}}, "moving_mean_initializer": {"class_name": "Zeros", "config": {}}, "moving_variance_initializer": {"class_name": "Ones", "config": {}}, "beta_regularizer": null, "gamma_regularizer": null, "beta_constraint": null, "gamma_constraint": null}, "name": "batch_normalization_1029", "inbound_nodes": [[["conv2d_1029", 0, 0, {}]]]}, {"class_name": "Activation", "config": {"name": "activation_1029", "trainable": true, "dtype": "float32", "activation": "relu"}, "name": "activation_1029", "inbound_nodes": [[["batch_normalization_1029", 0, 0, {}]]]}, {"class_name": "Conv2D", "config": {"name": "conv2d_1026", "trainable": true, "dtype": "float32", "filters": 384, "kernel_size": [1, 1], "strides": [1, 1], "padding": "same", "data_format": "channels_last", "dilation_rate": [1, 1], "groups": 1, "activation": "linear", "use_bias": false, "kernel_initializer": {"class_name": "GlorotUniform", "config": {"seed": null}}, "bias_initializer": {"class_name": "Zeros", "config": {}}, "kernel_regularizer": null, "bias_regularizer": null, "activity_regularizer": null, "kernel_constraint": null, "bias_constraint": null}, "name": "conv2d_1026", "inbound_nodes": [[["mixed9", 0, 0, {}]]]}, {"class_name": "Conv2D", "config": {"name": "conv2d_1030", "trainable": true, "dtype": "float32", "filters": 384, "kernel_size": [3, 3], "strides": [1, 1], "padding": "same", "data_format": "channels_last", "dilation_rate": [1, 1], "groups": 1, "activation": "linear", "use_bias": false, "kernel_initializer": {"class_name": "GlorotUniform", "config": {"seed": null}}, "bias_initializer": {"class_name": "Zeros", "config": {}}, "kernel_regularizer": null, "bias_regularizer": null, "activity_regularizer": null, "kernel_constraint": null, "bias_constraint": null}, "name": "conv2d_1030", "inbound_nodes": [[["activation_1029", 0, 0, {}]]]}, {"class_name": "BatchNormalization", "config": {"name": "batch_normalization_1026", "trainable": true, "dtype": "float32", "axis": [3], "momentum": 0.99, "epsilon": 0.001, "center": true, "scale": false, "beta_initializer": {"class_name": "Zeros", "config": {}}, "gamma_initializer": {"class_name": "Ones", "config": {}}, "moving_mean_initializer": {"class_name": "Zeros", "config": {}}, "moving_variance_initializer": {"class_name": "Ones", "config": {}}, "beta_regularizer": null, "gamma_regularizer": null, "beta_constraint": null, "gamma_constraint": null}, "name": "batch_normalization_1026", "inbound_nodes": [[["conv2d_1026", 0, 0, {}]]]}, {"class_name": "BatchNormalization", "config": {"name": "batch_normalization_1030", "trainable": true, "dtype": "float32", "axis": [3], "momentum": 0.99, "epsilon": 0.001, "center": true, "scale": false, "beta_initializer": {"class_name": "Zeros", "config": {}}, "gamma_initializer": {"class_name": "Ones", "config": {}}, "moving_mean_initializer": {"class_name": "Zeros", "config": {}}, "moving_variance_initializer": {"class_name": "Ones", "config": {}}, "beta_regularizer": null, "gamma_regularizer": null, "beta_constraint": null, "gamma_constraint": null}, "name": "batch_normalization_1030", "inbound_nodes": [[["conv2d_1030", 0, 0, {}]]]}, {"class_name": "Activation", "config": {"name": "activation_1026", "trainable": true, "dtype": "float32", "activation": "relu"}, "name": "activation_1026", "inbound_nodes": [[["batch_normalization_1026", 0, 0, {}]]]}, {"class_name": "Activation", "config": {"name": "activation_1030", "trainable": true, "dtype": "float32", "activation": "relu"}, "name": "activation_1030", "inbound_nodes": [[["batch_normalization_1030", 0, 0, {}]]]}, {"class_name": "Conv2D", "config": {"name": "conv2d_1027", "trainable": true, "dtype": "float32", "filters": 384, "kernel_size": [1, 3], "strides": [1, 1], "padding": "same", "data_format": "channels_last", "dilation_rate": [1, 1], "groups": 1, "activation": "linear", "use_bias": false, "kernel_initializer": {"class_name": "GlorotUniform", "config": {"seed": null}}, "bias_initializer": {"class_name": "Zeros", "config": {}}, "kernel_regularizer": null, "bias_regularizer": null, "activity_regularizer": null, "kernel_constraint": null, "bias_constraint": null}, "name": "conv2d_1027", "inbound_nodes": [[["activation_1026", 0, 0, {}]]]}, {"class_name": "Conv2D", "config": {"name": "conv2d_1028", "trainable": true, "dtype": "float32", "filters": 384, "kernel_size": [3, 1], "strides": [1, 1], "padding": "same", "data_format": "channels_last", "dilation_rate": [1, 1], "groups": 1, "activation": "linear", "use_bias": false, "kernel_initializer": {"class_name": "GlorotUniform", "config": {"seed": null}}, "bias_initializer": {"class_name": "Zeros", "config": {}}, "kernel_regularizer": null, "bias_regularizer": null, "activity_regularizer": null, "kernel_constraint": null, "bias_constraint": null}, "name": "conv2d_1028", "inbound_nodes": [[["activation_1026", 0, 0, {}]]]}, {"class_name": "Conv2D", "config": {"name": "conv2d_1031", "trainable": true, "dtype": "float32", "filters": 384, "kernel_size": [1, 3], "strides": [1, 1], "padding": "same", "data_format": "channels_last", "dilation_rate": [1, 1], "groups": 1, "activation": "linear", "use_bias": false, "kernel_initializer": {"class_name": "GlorotUniform", "config": {"seed": null}}, "bias_initializer": {"class_name": "Zeros", "config": {}}, "kernel_regularizer": null, "bias_regularizer": null, "activity_regularizer": null, "kernel_constraint": null, "bias_constraint": null}, "name": "conv2d_1031", "inbound_nodes": [[["activation_1030", 0, 0, {}]]]}, {"class_name": "Conv2D", "config": {"name": "conv2d_1032", "trainable": true, "dtype": "float32", "filters": 384, "kernel_size": [3, 1], "strides": [1, 1], "padding": "same", "data_format": "channels_last", "dilation_rate": [1, 1], "groups": 1, "activation": "linear", "use_bias": false, "kernel_initializer": {"class_name": "GlorotUniform", "config": {"seed": null}}, "bias_initializer": {"class_name": "Zeros", "config": {}}, "kernel_regularizer": null, "bias_regularizer": null, "activity_regularizer": null, "kernel_constraint": null, "bias_constraint": null}, "name": "conv2d_1032", "inbound_nodes": [[["activation_1030", 0, 0, {}]]]}, {"class_name": "AveragePooling2D", "config": {"name": "average_pooling2d_98", "trainable": true, "dtype": "float32", "pool_size": [3, 3], "padding": "same", "strides": [1, 1], "data_format": "channels_last"}, "name": "average_pooling2d_98", "inbound_nodes": [[["mixed9", 0, 0, {}]]]}, {"class_name": "Conv2D", "config": {"name": "conv2d_1025", "trainable": true, "dtype": "float32", "filters": 320, "kernel_size": [1, 1], "strides": [1, 1], "padding": "same", "data_format": "channels_last", "dilation_rate": [1, 1], "groups": 1, "activation": "linear", "use_bias": false, "kernel_initializer": {"class_name": "GlorotUniform", "config": {"seed": null}}, "bias_initializer": {"class_name": "Zeros", "config": {}}, "kernel_regularizer": null, "bias_regularizer": null, "activity_regularizer": null, "kernel_constraint": null, "bias_constraint": null}, "name": "conv2d_1025", "inbound_nodes": [[["mixed9", 0, 0, {}]]]}, {"class_name": "BatchNormalization", "config": {"name": "batch_normalization_1027", "trainable": true, "dtype": "float32", "axis": [3], "momentum": 0.99, "epsilon": 0.001, "center": true, "scale": false, "beta_initializer": {"class_name": "Zeros", "config": {}}, "gamma_initializer": {"class_name": "Ones", "config": {}}, "moving_mean_initializer": {"class_name": "Zeros", "config": {}}, "moving_variance_initializer": {"class_name": "Ones", "config": {}}, "beta_regularizer": null, "gamma_regularizer": null, "beta_constraint": null, "gamma_constraint": null}, "name": "batch_normalization_1027", "inbound_nodes": [[["conv2d_1027", 0, 0, {}]]]}, {"class_name": "BatchNormalization", "config": {"name": "batch_normalization_1028", "trainable": true, "dtype": "float32", "axis": [3], "momentum": 0.99, "epsilon": 0.001, "center": true, "scale": false, "beta_initializer": {"class_name": "Zeros", "config": {}}, "gamma_initializer": {"class_name": "Ones", "config": {}}, "moving_mean_initializer": {"class_name": "Zeros", "config": {}}, "moving_variance_initializer": {"class_name": "Ones", "config": {}}, "beta_regularizer": null, "gamma_regularizer": null, "beta_constraint": null, "gamma_constraint": null}, "name": "batch_normalization_1028", "inbound_nodes": [[["conv2d_1028", 0, 0, {}]]]}, {"class_name": "BatchNormalization", "config": {"name": "batch_normalization_1031", "trainable": true, "dtype": "float32", "axis": [3], "momentum": 0.99, "epsilon": 0.001, "center": true, "scale": false, "beta_initializer": {"class_name": "Zeros", "config": {}}, "gamma_initializer": {"class_name": "Ones", "config": {}}, "moving_mean_initializer": {"class_name": "Zeros", "config": {}}, "moving_variance_initializer": {"class_name": "Ones", "config": {}}, "beta_regularizer": null, "gamma_regularizer": null, "beta_constraint": null, "gamma_constraint": null}, "name": "batch_normalization_1031", "inbound_nodes": [[["conv2d_1031", 0, 0, {}]]]}, {"class_name": "BatchNormalization", "config": {"name": "batch_normalization_1032", "trainable": true, "dtype": "float32", "axis": [3], "momentum": 0.99, "epsilon": 0.001, "center": true, "scale": false, "beta_initializer": {"class_name": "Zeros", "config": {}}, "gamma_initializer": {"class_name": "Ones", "config": {}}, "moving_mean_initializer": {"class_name": "Zeros", "config": {}}, "moving_variance_initializer": {"class_name": "Ones", "config": {}}, "beta_regularizer": null, "gamma_regularizer": null, "beta_constraint": null, "gamma_constraint": null}, "name": "batch_normalization_1032", "inbound_nodes": [[["conv2d_1032", 0, 0, {}]]]}, {"class_name": "Conv2D", "config": {"name": "conv2d_1033", "trainable": true, "dtype": "float32", "filters": 192, "kernel_size": [1, 1], "strides": [1, 1], "padding": "same", "data_format": "channels_last", "dilation_rate": [1, 1], "groups": 1, "activation": "linear", "use_bias": false, "kernel_initializer": {"class_name": "GlorotUniform", "config": {"seed": null}}, "bias_initializer": {"class_name": "Zeros", "config": {}}, "kernel_regularizer": null, "bias_regularizer": null, "activity_regularizer": null, "kernel_constraint": null, "bias_constraint": null}, "name": "conv2d_1033", "inbound_nodes": [[["average_pooling2d_98", 0, 0, {}]]]}, {"class_name": "BatchNormalization", "config": {"name": "batch_normalization_1025", "trainable": true, "dtype": "float32", "axis": [3], "momentum": 0.99, "epsilon": 0.001, "center": true, "scale": false, "beta_initializer": {"class_name": "Zeros", "config": {}}, "gamma_initializer": {"class_name": "Ones", "config": {}}, "moving_mean_initializer": {"class_name": "Zeros", "config": {}}, "moving_variance_initializer": {"class_name": "Ones", "config": {}}, "beta_regularizer": null, "gamma_regularizer": null, "beta_constraint": null, "gamma_constraint": null}, "name": "batch_normalization_1025", "inbound_nodes": [[["conv2d_1025", 0, 0, {}]]]}, {"class_name": "Activation", "config": {"name": "activation_1027", "trainable": true, "dtype": "float32", "activation": "relu"}, "name": "activation_1027", "inbound_nodes": [[["batch_normalization_1027", 0, 0, {}]]]}, {"class_name": "Activation", "config": {"name": "activation_1028", "trainable": true, "dtype": "float32", "activation": "relu"}, "name": "activation_1028", "inbound_nodes": [[["batch_normalization_1028", 0, 0, {}]]]}, {"class_name": "Activation", "config": {"name": "activation_1031", "trainable": true, "dtype": "float32", "activation": "relu"}, "name": "activation_1031", "inbound_nodes": [[["batch_normalization_1031", 0, 0, {}]]]}, {"class_name": "Activation", "config": {"name": "activation_1032", "trainable": true, "dtype": "float32", "activation": "relu"}, "name": "activation_1032", "inbound_nodes": [[["batch_normalization_1032", 0, 0, {}]]]}, {"class_name": "BatchNormalization", "config": {"name": "batch_normalization_1033", "trainable": true, "dtype": "float32", "axis": [3], "momentum": 0.99, "epsilon": 0.001, "center": true, "scale": false, "beta_initializer": {"class_name": "Zeros", "config": {}}, "gamma_initializer": {"class_name": "Ones", "config": {}}, "moving_mean_initializer": {"class_name": "Zeros", "config": {}}, "moving_variance_initializer": {"class_name": "Ones", "config": {}}, "beta_regularizer": null, "gamma_regularizer": null, "beta_constraint": null, "gamma_constraint": null}, "name": "batch_normalization_1033", "inbound_nodes": [[["conv2d_1033", 0, 0, {}]]]}, {"class_name": "Activation", "config": {"name": "activation_1025", "trainable": true, "dtype": "float32", "activation": "relu"}, "name": "activation_1025", "inbound_nodes": [[["batch_normalization_1025", 0, 0, {}]]]}, {"class_name": "Concatenate", "config": {"name": "mixed9_1", "trainable": true, "dtype": "float32", "axis": 3}, "name": "mixed9_1", "inbound_nodes": [[["activation_1027", 0, 0, {}], ["activation_1028", 0, 0, {}]]]}, {"class_name": "Concatenate", "config": {"name": "concatenate_21", "trainable": true, "dtype": "float32", "axis": 3}, "name": "concatenate_21", "inbound_nodes": [[["activation_1031", 0, 0, {}], ["activation_1032", 0, 0, {}]]]}, {"class_name": "Activation", "config": {"name": "activation_1033", "trainable": true, "dtype": "float32", "activation": "relu"}, "name": "activation_1033", "inbound_nodes": [[["batch_normalization_1033", 0, 0, {}]]]}, {"class_name": "Concatenate", "config": {"name": "mixed10", "trainable": true, "dtype": "float32", "axis": 3}, "name": "mixed10", "inbound_nodes": [[["activation_1025", 0, 0, {}], ["mixed9_1", 0, 0, {}], ["concatenate_21", 0, 0, {}], ["activation_1033", 0, 0, {}]]]}, {"class_name": "GlobalAveragePooling2D", "config": {"name": "global_average_pooling2d_10", "trainable": true, "dtype": "float32", "data_format": "channels_last", "keepdims": false}, "name": "global_average_pooling2d_10", "inbound_nodes": [[["mixed10", 0, 0, {}]]]}, {"class_name": "Dense", "config": {"name": "dense_20", "trainable": true, "dtype": "float32", "units": 128, "activation": "relu", "use_bias": true, "kernel_initializer": {"class_name": "GlorotUniform", "config": {"seed": null}}, "bias_initializer": {"class_name": "Zeros", "config": {}}, "kernel_regularizer": null, "bias_regularizer": null, "activity_regularizer": null, "kernel_constraint": null, "bias_constraint": null}, "name": "dense_20", "inbound_nodes": [[["global_average_pooling2d_10", 0, 0, {}]]]}, {"class_name": "Dropout", "config": {"name": "dropout_10", "trainable": true, "dtype": "float32", "rate": 0.2, "noise_shape": null, "seed": null}, "name": "dropout_10", "inbound_nodes": [[["dense_20", 0, 0, {}]]]}, {"class_name": "Dense", "config": {"name": "dense_21", "trainable": true, "dtype": "float32", "units": 101, "activation": "softmax", "use_bias": true, "kernel_initializer": {"class_name": "GlorotUniform", "config": {"seed": null}}, "bias_initializer": {"class_name": "Zeros", "config": {}}, "kernel_regularizer": {"class_name": "L1", "config": {"l1": 0.004999999888241291}}, "bias_regularizer": null, "activity_regularizer": null, "kernel_constraint": null, "bias_constraint": null}, "name": "dense_21", "inbound_nodes": [[["dropout_10", 0, 0, {}]]]}], "input_layers": [["input_11", 0, 0]], "output_layers": [["dense_21", 0, 0]]}}, "training_config": {"loss": "categorical_crossentropy", "metrics": [[{"class_name": "MeanMetricWrapper", "config": {"name": "accuracy", "dtype": "float32", "fn": "categorical_accuracy"}}]], "weighted_metrics": null, "loss_weights": null, "optimizer_config": {"class_name": "SGD", "config": {"name": "SGD", "learning_rate": 9.999999747378752e-05, "decay": 0.0, "momentum": 0.8999999761581421, "nesterov": false}}}}, "weightsManifest": [{"paths": ["group1-shard1of22.bin", "group1-shard2of22.bin", "group1-shard3of22.bin", "group1-shard4of22.bin", "group1-shard5of22.bin", "group1-shard6of22.bin", "group1-shard7of22.bin", "group1-shard8of22.bin", "group1-shard9of22.bin", "group1-shard10of22.bin", "group1-shard11of22.bin", "group1-shard12of22.bin", "group1-shard13of22.bin", "group1-shard14of22.bin", "group1-shard15of22.bin", "group1-shard16of22.bin", "group1-shard17of22.bin", "group1-shard18of22.bin", "group1-shard19of22.bin", "group1-shard20of22.bin", "group1-shard21of22.bin", "group1-shard22of22.bin"], "weights": [{"name": "batch_normalization_1000/beta", "shape": [192], "dtype": "float32"}, {"name": "batch_normalization_1000/moving_mean", "shape": [192], "dtype": "float32"}, {"name": "batch_normalization_1000/moving_variance", "shape": [192], "dtype": "float32"}, {"name": "batch_normalization_1001/beta", "shape": [192], "dtype": "float32"}, {"name": "batch_normalization_1001/moving_mean", "shape": [192], "dtype": "float32"}, {"name": "batch_normalization_1001/moving_variance", "shape": [192], "dtype": "float32"}, {"name": "batch_normalization_1002/beta", "shape": [192], "dtype": "float32"}, {"name": "batch_normalization_1002/moving_mean", "shape": [192], "dtype": "float32"}, {"name": "batch_normalization_1002/moving_variance", "shape": [192], "dtype": "float32"}, {"name": "batch_normalization_1003/beta", "shape": [192], "dtype": "float32"}, {"name": "batch_normalization_1003/moving_mean", "shape": [192], "dtype": "float32"}, {"name": "batch_normalization_1003/moving_variance", "shape": [192], "dtype": "float32"}, {"name": "batch_normalization_1004/beta", "shape": [192], "dtype": "float32"}, {"name": "batch_normalization_1004/moving_mean", "shape": [192], "dtype": "float32"}, {"name": "batch_normalization_1004/moving_variance", "shape": [192], "dtype": "float32"}, {"name": "batch_normalization_1005/beta", "shape": [192], "dtype": "float32"}, {"name": "batch_normalization_1005/moving_mean", "shape": [192], "dtype": "float32"}, {"name": "batch_normalization_1005/moving_variance", "shape": [192], "dtype": "float32"}, {"name": "batch_normalization_1006/beta", "shape": [192], "dtype": "float32"}, {"name": "batch_normalization_1006/moving_mean", "shape": [192], "dtype": "float32"}, {"name": "batch_normalization_1006/moving_variance", "shape": [192], "dtype": "float32"}, {"name": "batch_normalization_1007/beta", "shape": [192], "dtype": "float32"}, {"name": "batch_normalization_1007/moving_mean", "shape": [192], "dtype": "float32"}, {"name": "batch_normalization_1007/moving_variance", "shape": [192], "dtype": "float32"}, {"name": "batch_normalization_1008/beta", "shape": [192], "dtype": "float32"}, {"name": "batch_normalization_1008/moving_mean", "shape": [192], "dtype": "float32"}, {"name": "batch_normalization_1008/moving_variance", "shape": [192], "dtype": "float32"}, {"name": "batch_normalization_1009/beta", "shape": [192], "dtype": "float32"}, {"name": "batch_normalization_1009/moving_mean", "shape": [192], "dtype": "float32"}, {"name": "batch_normalization_1009/moving_variance", "shape": [192], "dtype": "float32"}, {"name": "batch_normalization_1010/beta", "shape": [192], "dtype": "float32"}, {"name": "batch_normalization_1010/moving_mean", "shape": [192], "dtype": "float32"}, {"name": "batch_normalization_1010/moving_variance", "shape": [192], "dtype": "float32"}, {"name": "batch_normalization_1011/beta", "shape": [320], "dtype": "float32"}, {"name": "batch_normalization_1011/moving_mean", "shape": [320], "dtype": "float32"}, {"name": "batch_normalization_1011/moving_variance", "shape": [320], "dtype": "float32"}, {"name": "batch_normalization_1012/beta", "shape": [192], "dtype": "float32"}, {"name": "batch_normalization_1012/moving_mean", "shape": [192], "dtype": "float32"}, {"name": "batch_normalization_1012/moving_variance", "shape": [192], "dtype": "float32"}, {"name": "batch_normalization_1013/beta", "shape": [192], "dtype": "float32"}, {"name": "batch_normalization_1013/moving_mean", "shape": [192], "dtype": "float32"}, {"name": "batch_normalization_1013/moving_variance", "shape": [192], "dtype": "float32"}, {"name": "batch_normalization_1014/beta", "shape": [192], "dtype": "float32"}, {"name": "batch_normalization_1014/moving_mean", "shape": [192], "dtype": "float32"}, {"name": "batch_normalization_1014/moving_variance", "shape": [192], "dtype": "float32"}, {"name": "batch_normalization_1015/beta", "shape": [192], "dtype": "float32"}, {"name": "batch_normalization_1015/moving_mean", "shape": [192], "dtype": "float32"}, {"name": "batch_normalization_1015/moving_variance", "shape": [192], "dtype": "float32"}, {"name": "batch_normalization_1016/beta", "shape": [320], "dtype": "float32"}, {"name": "batch_normalization_1016/moving_mean", "shape": [320], "dtype": "float32"}, {"name": "batch_normalization_1016/moving_variance", "shape": [320], "dtype": "float32"}, {"name": "batch_normalization_1017/beta", "shape": [384], "dtype": "float32"}, {"name": "batch_normalization_1017/moving_mean", "shape": [384], "dtype": "float32"}, {"name": "batch_normalization_1017/moving_variance", "shape": [384], "dtype": "float32"}, {"name": "batch_normalization_1018/beta", "shape": [384], "dtype": "float32"}, {"name": "batch_normalization_1018/moving_mean", "shape": [384], "dtype": "float32"}, {"name": "batch_normalization_1018/moving_variance", "shape": [384], "dtype": "float32"}, {"name": "batch_normalization_1019/beta", "shape": [384], "dtype": "float32"}, {"name": "batch_normalization_1019/moving_mean", "shape": [384], "dtype": "float32"}, {"name": "batch_normalization_1019/moving_variance", "shape": [384], "dtype": "float32"}, {"name": "batch_normalization_1020/beta", "shape": [448], "dtype": "float32"}, {"name": "batch_normalization_1020/moving_mean", "shape": [448], "dtype": "float32"}, {"name": "batch_normalization_1020/moving_variance", "shape": [448], "dtype": "float32"}, {"name": "batch_normalization_1021/beta", "shape": [384], "dtype": "float32"}, {"name": "batch_normalization_1021/moving_mean", "shape": [384], "dtype": "float32"}, {"name": "batch_normalization_1021/moving_variance", "shape": [384], "dtype": "float32"}, {"name": "batch_normalization_1022/beta", "shape": [384], "dtype": "float32"}, {"name": "batch_normalization_1022/moving_mean", "shape": [384], "dtype": "float32"}, {"name": "batch_normalization_1022/moving_variance", "shape": [384], "dtype": "float32"}, {"name": "batch_normalization_1023/beta", "shape": [384], "dtype": "float32"}, {"name": "batch_normalization_1023/moving_mean", "shape": [384], "dtype": "float32"}, {"name": "batch_normalization_1023/moving_variance", "shape": [384], "dtype": "float32"}, {"name": "batch_normalization_1024/beta", "shape": [192], "dtype": "float32"}, {"name": "batch_normalization_1024/moving_mean", "shape": [192], "dtype": "float32"}, {"name": "batch_normalization_1024/moving_variance", "shape": [192], "dtype": "float32"}, {"name": "batch_normalization_1025/beta", "shape": [320], "dtype": "float32"}, {"name": "batch_normalization_1025/moving_mean", "shape": [320], "dtype": "float32"}, {"name": "batch_normalization_1025/moving_variance", "shape": [320], "dtype": "float32"}, {"name": "batch_normalization_1026/beta", "shape": [384], "dtype": "float32"}, {"name": "batch_normalization_1026/moving_mean", "shape": [384], "dtype": "float32"}, {"name": "batch_normalization_1026/moving_variance", "shape": [384], "dtype": "float32"}, {"name": "batch_normalization_1027/beta", "shape": [384], "dtype": "float32"}, {"name": "batch_normalization_1027/moving_mean", "shape": [384], "dtype": "float32"}, {"name": "batch_normalization_1027/moving_variance", "shape": [384], "dtype": "float32"}, {"name": "batch_normalization_1028/beta", "shape": [384], "dtype": "float32"}, {"name": "batch_normalization_1028/moving_mean", "shape": [384], "dtype": "float32"}, {"name": "batch_normalization_1028/moving_variance", "shape": [384], "dtype": "float32"}, {"name": "batch_normalization_1029/beta", "shape": [448], "dtype": "float32"}, {"name": "batch_normalization_1029/moving_mean", "shape": [448], "dtype": "float32"}, {"name": "batch_normalization_1029/moving_variance", "shape": [448], "dtype": "float32"}, {"name": "batch_normalization_1030/beta", "shape": [384], "dtype": "float32"}, {"name": "batch_normalization_1030/moving_mean", "shape": [384], "dtype": "float32"}, {"name": "batch_normalization_1030/moving_variance", "shape": [384], "dtype": "float32"}, {"name": "batch_normalization_1031/beta", "shape": [384], "dtype": "float32"}, {"name": "batch_normalization_1031/moving_mean", "shape": [384], "dtype": "float32"}, {"name": "batch_normalization_1031/moving_variance", "shape": [384], "dtype": "float32"}, {"name": "batch_normalization_1032/beta", "shape": [384], "dtype": "float32"}, {"name": "batch_normalization_1032/moving_mean", "shape": [384], "dtype": "float32"}, {"name": "batch_normalization_1032/moving_variance", "shape": [384], "dtype": "float32"}, {"name": "batch_normalization_1033/beta", "shape": [192], "dtype": "float32"}, {"name": "batch_normalization_1033/moving_mean", "shape": [192], "dtype": "float32"}, {"name": "batch_normalization_1033/moving_variance", "shape": [192], "dtype": "float32"}, {"name": "batch_normalization_940/beta", "shape": [32], "dtype": "float32"}, {"name": "batch_normalization_940/moving_mean", "shape": [32], "dtype": "float32"}, {"name": "batch_normalization_940/moving_variance", "shape": [32], "dtype": "float32"}, {"name": "batch_normalization_941/beta", "shape": [32], "dtype": "float32"}, {"name": "batch_normalization_941/moving_mean", "shape": [32], "dtype": "float32"}, {"name": "batch_normalization_941/moving_variance", "shape": [32], "dtype": "float32"}, {"name": "batch_normalization_942/beta", "shape": [64], "dtype": "float32"}, {"name": "batch_normalization_942/moving_mean", "shape": [64], "dtype": "float32"}, {"name": "batch_normalization_942/moving_variance", "shape": [64], "dtype": "float32"}, {"name": "batch_normalization_943/beta", "shape": [80], "dtype": "float32"}, {"name": "batch_normalization_943/moving_mean", "shape": [80], "dtype": "float32"}, {"name": "batch_normalization_943/moving_variance", "shape": [80], "dtype": "float32"}, {"name": "batch_normalization_944/beta", "shape": [192], "dtype": "float32"}, {"name": "batch_normalization_944/moving_mean", "shape": [192], "dtype": "float32"}, {"name": "batch_normalization_944/moving_variance", "shape": [192], "dtype": "float32"}, {"name": "batch_normalization_945/beta", "shape": [64], "dtype": "float32"}, {"name": "batch_normalization_945/moving_mean", "shape": [64], "dtype": "float32"}, {"name": "batch_normalization_945/moving_variance", "shape": [64], "dtype": "float32"}, {"name": "batch_normalization_946/beta", "shape": [48], "dtype": "float32"}, {"name": "batch_normalization_946/moving_mean", "shape": [48], "dtype": "float32"}, {"name": "batch_normalization_946/moving_variance", "shape": [48], "dtype": "float32"}, {"name": "batch_normalization_947/beta", "shape": [64], "dtype": "float32"}, {"name": "batch_normalization_947/moving_mean", "shape": [64], "dtype": "float32"}, {"name": "batch_normalization_947/moving_variance", "shape": [64], "dtype": "float32"}, {"name": "batch_normalization_948/beta", "shape": [64], "dtype": "float32"}, {"name": "batch_normalization_948/moving_mean", "shape": [64], "dtype": "float32"}, {"name": "batch_normalization_948/moving_variance", "shape": [64], "dtype": "float32"}, {"name": "batch_normalization_949/beta", "shape": [96], "dtype": "float32"}, {"name": "batch_normalization_949/moving_mean", "shape": [96], "dtype": "float32"}, {"name": "batch_normalization_949/moving_variance", "shape": [96], "dtype": "float32"}, {"name": "batch_normalization_950/beta", "shape": [96], "dtype": "float32"}, {"name": "batch_normalization_950/moving_mean", "shape": [96], "dtype": "float32"}, {"name": "batch_normalization_950/moving_variance", "shape": [96], "dtype": "float32"}, {"name": "batch_normalization_951/beta", "shape": [32], "dtype": "float32"}, {"name": "batch_normalization_951/moving_mean", "shape": [32], "dtype": "float32"}, {"name": "batch_normalization_951/moving_variance", "shape": [32], "dtype": "float32"}, {"name": "batch_normalization_952/beta", "shape": [64], "dtype": "float32"}, {"name": "batch_normalization_952/moving_mean", "shape": [64], "dtype": "float32"}, {"name": "batch_normalization_952/moving_variance", "shape": [64], "dtype": "float32"}, {"name": "batch_normalization_953/beta", "shape": [48], "dtype": "float32"}, {"name": "batch_normalization_953/moving_mean", "shape": [48], "dtype": "float32"}, {"name": "batch_normalization_953/moving_variance", "shape": [48], "dtype": "float32"}, {"name": "batch_normalization_954/beta", "shape": [64], "dtype": "float32"}, {"name": "batch_normalization_954/moving_mean", "shape": [64], "dtype": "float32"}, {"name": "batch_normalization_954/moving_variance", "shape": [64], "dtype": "float32"}, {"name": "batch_normalization_955/beta", "shape": [64], "dtype": "float32"}, {"name": "batch_normalization_955/moving_mean", "shape": [64], "dtype": "float32"}, {"name": "batch_normalization_955/moving_variance", "shape": [64], "dtype": "float32"}, {"name": "batch_normalization_956/beta", "shape": [96], "dtype": "float32"}, {"name": "batch_normalization_956/moving_mean", "shape": [96], "dtype": "float32"}, {"name": "batch_normalization_956/moving_variance", "shape": [96], "dtype": "float32"}, {"name": "batch_normalization_957/beta", "shape": [96], "dtype": "float32"}, {"name": "batch_normalization_957/moving_mean", "shape": [96], "dtype": "float32"}, {"name": "batch_normalization_957/moving_variance", "shape": [96], "dtype": "float32"}, {"name": "batch_normalization_958/beta", "shape": [64], "dtype": "float32"}, {"name": "batch_normalization_958/moving_mean", "shape": [64], "dtype": "float32"}, {"name": "batch_normalization_958/moving_variance", "shape": [64], "dtype": "float32"}, {"name": "batch_normalization_959/beta", "shape": [64], "dtype": "float32"}, {"name": "batch_normalization_959/moving_mean", "shape": [64], "dtype": "float32"}, {"name": "batch_normalization_959/moving_variance", "shape": [64], "dtype": "float32"}, {"name": "batch_normalization_960/beta", "shape": [48], "dtype": "float32"}, {"name": "batch_normalization_960/moving_mean", "shape": [48], "dtype": "float32"}, {"name": "batch_normalization_960/moving_variance", "shape": [48], "dtype": "float32"}, {"name": "batch_normalization_961/beta", "shape": [64], "dtype": "float32"}, {"name": "batch_normalization_961/moving_mean", "shape": [64], "dtype": "float32"}, {"name": "batch_normalization_961/moving_variance", "shape": [64], "dtype": "float32"}, {"name": "batch_normalization_962/beta", "shape": [64], "dtype": "float32"}, {"name": "batch_normalization_962/moving_mean", "shape": [64], "dtype": "float32"}, {"name": "batch_normalization_962/moving_variance", "shape": [64], "dtype": "float32"}, {"name": "batch_normalization_963/beta", "shape": [96], "dtype": "float32"}, {"name": "batch_normalization_963/moving_mean", "shape": [96], "dtype": "float32"}, {"name": "batch_normalization_963/moving_variance", "shape": [96], "dtype": "float32"}, {"name": "batch_normalization_964/beta", "shape": [96], "dtype": "float32"}, {"name": "batch_normalization_964/moving_mean", "shape": [96], "dtype": "float32"}, {"name": "batch_normalization_964/moving_variance", "shape": [96], "dtype": "float32"}, {"name": "batch_normalization_965/beta", "shape": [64], "dtype": "float32"}, {"name": "batch_normalization_965/moving_mean", "shape": [64], "dtype": "float32"}, {"name": "batch_normalization_965/moving_variance", "shape": [64], "dtype": "float32"}, {"name": "batch_normalization_966/beta", "shape": [384], "dtype": "float32"}, {"name": "batch_normalization_966/moving_mean", "shape": [384], "dtype": "float32"}, {"name": "batch_normalization_966/moving_variance", "shape": [384], "dtype": "float32"}, {"name": "batch_normalization_967/beta", "shape": [64], "dtype": "float32"}, {"name": "batch_normalization_967/moving_mean", "shape": [64], "dtype": "float32"}, {"name": "batch_normalization_967/moving_variance", "shape": [64], "dtype": "float32"}, {"name": "batch_normalization_968/beta", "shape": [96], "dtype": "float32"}, {"name": "batch_normalization_968/moving_mean", "shape": [96], "dtype": "float32"}, {"name": "batch_normalization_968/moving_variance", "shape": [96], "dtype": "float32"}, {"name": "batch_normalization_969/beta", "shape": [96], "dtype": "float32"}, {"name": "batch_normalization_969/moving_mean", "shape": [96], "dtype": "float32"}, {"name": "batch_normalization_969/moving_variance", "shape": [96], "dtype": "float32"}, {"name": "batch_normalization_970/beta", "shape": [192], "dtype": "float32"}, {"name": "batch_normalization_970/moving_mean", "shape": [192], "dtype": "float32"}, {"name": "batch_normalization_970/moving_variance", "shape": [192], "dtype": "float32"}, {"name": "batch_normalization_971/beta", "shape": [128], "dtype": "float32"}, {"name": "batch_normalization_971/moving_mean", "shape": [128], "dtype": "float32"}, {"name": "batch_normalization_971/moving_variance", "shape": [128], "dtype": "float32"}, {"name": "batch_normalization_972/beta", "shape": [128], "dtype": "float32"}, {"name": "batch_normalization_972/moving_mean", "shape": [128], "dtype": "float32"}, {"name": "batch_normalization_972/moving_variance", "shape": [128], "dtype": "float32"}, {"name": "batch_normalization_973/beta", "shape": [192], "dtype": "float32"}, {"name": "batch_normalization_973/moving_mean", "shape": [192], "dtype": "float32"}, {"name": "batch_normalization_973/moving_variance", "shape": [192], "dtype": "float32"}, {"name": "batch_normalization_974/beta", "shape": [128], "dtype": "float32"}, {"name": "batch_normalization_974/moving_mean", "shape": [128], "dtype": "float32"}, {"name": "batch_normalization_974/moving_variance", "shape": [128], "dtype": "float32"}, {"name": "batch_normalization_975/beta", "shape": [128], "dtype": "float32"}, {"name": "batch_normalization_975/moving_mean", "shape": [128], "dtype": "float32"}, {"name": "batch_normalization_975/moving_variance", "shape": [128], "dtype": "float32"}, {"name": "batch_normalization_976/beta", "shape": [128], "dtype": "float32"}, {"name": "batch_normalization_976/moving_mean", "shape": [128], "dtype": "float32"}, {"name": "batch_normalization_976/moving_variance", "shape": [128], "dtype": "float32"}, {"name": "batch_normalization_977/beta", "shape": [128], "dtype": "float32"}, {"name": "batch_normalization_977/moving_mean", "shape": [128], "dtype": "float32"}, {"name": "batch_normalization_977/moving_variance", "shape": [128], "dtype": "float32"}, {"name": "batch_normalization_978/beta", "shape": [192], "dtype": "float32"}, {"name": "batch_normalization_978/moving_mean", "shape": [192], "dtype": "float32"}, {"name": "batch_normalization_978/moving_variance", "shape": [192], "dtype": "float32"}, {"name": "batch_normalization_979/beta", "shape": [192], "dtype": "float32"}, {"name": "batch_normalization_979/moving_mean", "shape": [192], "dtype": "float32"}, {"name": "batch_normalization_979/moving_variance", "shape": [192], "dtype": "float32"}, {"name": "batch_normalization_980/beta", "shape": [192], "dtype": "float32"}, {"name": "batch_normalization_980/moving_mean", "shape": [192], "dtype": "float32"}, {"name": "batch_normalization_980/moving_variance", "shape": [192], "dtype": "float32"}, {"name": "batch_normalization_981/beta", "shape": [160], "dtype": "float32"}, {"name": "batch_normalization_981/moving_mean", "shape": [160], "dtype": "float32"}, {"name": "batch_normalization_981/moving_variance", "shape": [160], "dtype": "float32"}, {"name": "batch_normalization_982/beta", "shape": [160], "dtype": "float32"}, {"name": "batch_normalization_982/moving_mean", "shape": [160], "dtype": "float32"}, {"name": "batch_normalization_982/moving_variance", "shape": [160], "dtype": "float32"}, {"name": "batch_normalization_983/beta", "shape": [192], "dtype": "float32"}, {"name": "batch_normalization_983/moving_mean", "shape": [192], "dtype": "float32"}, {"name": "batch_normalization_983/moving_variance", "shape": [192], "dtype": "float32"}, {"name": "batch_normalization_984/beta", "shape": [160], "dtype": "float32"}, {"name": "batch_normalization_984/moving_mean", "shape": [160], "dtype": "float32"}, {"name": "batch_normalization_984/moving_variance", "shape": [160], "dtype": "float32"}, {"name": "batch_normalization_985/beta", "shape": [160], "dtype": "float32"}, {"name": "batch_normalization_985/moving_mean", "shape": [160], "dtype": "float32"}, {"name": "batch_normalization_985/moving_variance", "shape": [160], "dtype": "float32"}, {"name": "batch_normalization_986/beta", "shape": [160], "dtype": "float32"}, {"name": "batch_normalization_986/moving_mean", "shape": [160], "dtype": "float32"}, {"name": "batch_normalization_986/moving_variance", "shape": [160], "dtype": "float32"}, {"name": "batch_normalization_987/beta", "shape": [160], "dtype": "float32"}, {"name": "batch_normalization_987/moving_mean", "shape": [160], "dtype": "float32"}, {"name": "batch_normalization_987/moving_variance", "shape": [160], "dtype": "float32"}, {"name": "batch_normalization_988/beta", "shape": [192], "dtype": "float32"}, {"name": "batch_normalization_988/moving_mean", "shape": [192], "dtype": "float32"}, {"name": "batch_normalization_988/moving_variance", "shape": [192], "dtype": "float32"}, {"name": "batch_normalization_989/beta", "shape": [192], "dtype": "float32"}, {"name": "batch_normalization_989/moving_mean", "shape": [192], "dtype": "float32"}, {"name": "batch_normalization_989/moving_variance", "shape": [192], "dtype": "float32"}, {"name": "batch_normalization_990/beta", "shape": [192], "dtype": "float32"}, {"name": "batch_normalization_990/moving_mean", "shape": [192], "dtype": "float32"}, {"name": "batch_normalization_990/moving_variance", "shape": [192], "dtype": "float32"}, {"name": "batch_normalization_991/beta", "shape": [160], "dtype": "float32"}, {"name": "batch_normalization_991/moving_mean", "shape": [160], "dtype": "float32"}, {"name": "batch_normalization_991/moving_variance", "shape": [160], "dtype": "float32"}, {"name": "batch_normalization_992/beta", "shape": [160], "dtype": "float32"}, {"name": "batch_normalization_992/moving_mean", "shape": [160], "dtype": "float32"}, {"name": "batch_normalization_992/moving_variance", "shape": [160], "dtype": "float32"}, {"name": "batch_normalization_993/beta", "shape": [192], "dtype": "float32"}, {"name": "batch_normalization_993/moving_mean", "shape": [192], "dtype": "float32"}, {"name": "batch_normalization_993/moving_variance", "shape": [192], "dtype": "float32"}, {"name": "batch_normalization_994/beta", "shape": [160], "dtype": "float32"}, {"name": "batch_normalization_994/moving_mean", "shape": [160], "dtype": "float32"}, {"name": "batch_normalization_994/moving_variance", "shape": [160], "dtype": "float32"}, {"name": "batch_normalization_995/beta", "shape": [160], "dtype": "float32"}, {"name": "batch_normalization_995/moving_mean", "shape": [160], "dtype": "float32"}, {"name": "batch_normalization_995/moving_variance", "shape": [160], "dtype": "float32"}, {"name": "batch_normalization_996/beta", "shape": [160], "dtype": "float32"}, {"name": "batch_normalization_996/moving_mean", "shape": [160], "dtype": "float32"}, {"name": "batch_normalization_996/moving_variance", "shape": [160], "dtype": "float32"}, {"name": "batch_normalization_997/beta", "shape": [160], "dtype": "float32"}, {"name": "batch_normalization_997/moving_mean", "shape": [160], "dtype": "float32"}, {"name": "batch_normalization_997/moving_variance", "shape": [160], "dtype": "float32"}, {"name": "batch_normalization_998/beta", "shape": [192], "dtype": "float32"}, {"name": "batch_normalization_998/moving_mean", "shape": [192], "dtype": "float32"}, {"name": "batch_normalization_998/moving_variance", "shape": [192], "dtype": "float32"}, {"name": "batch_normalization_999/beta", "shape": [192], "dtype": "float32"}, {"name": "batch_normalization_999/moving_mean", "shape": [192], "dtype": "float32"}, {"name": "batch_normalization_999/moving_variance", "shape": [192], "dtype": "float32"}, {"name": "conv2d_1000/kernel", "shape": [1, 1, 768, 192], "dtype": "float32"}, {"name": "conv2d_1001/kernel", "shape": [1, 1, 768, 192], "dtype": "float32"}, {"name": "conv2d_1002/kernel", "shape": [1, 7, 192, 192], "dtype": "float32"}, {"name": "conv2d_1003/kernel", "shape": [7, 1, 192, 192], "dtype": "float32"}, {"name": "conv2d_1004/kernel", "shape": [1, 1, 768, 192], "dtype": "float32"}, {"name": "conv2d_1005/kernel", "shape": [7, 1, 192, 192], "dtype": "float32"}, {"name": "conv2d_1006/kernel", "shape": [1, 7, 192, 192], "dtype": "float32"}, {"name": "conv2d_1007/kernel", "shape": [7, 1, 192, 192], "dtype": "float32"}, {"name": "conv2d_1008/kernel", "shape": [1, 7, 192, 192], "dtype": "float32"}, {"name": "conv2d_1009/kernel", "shape": [1, 1, 768, 192], "dtype": "float32"}, {"name": "conv2d_1010/kernel", "shape": [1, 1, 768, 192], "dtype": "float32"}, {"name": "conv2d_1011/kernel", "shape": [3, 3, 192, 320], "dtype": "float32"}, {"name": "conv2d_1012/kernel", "shape": [1, 1, 768, 192], "dtype": "float32"}, {"name": "conv2d_1013/kernel", "shape": [1, 7, 192, 192], "dtype": "float32"}, {"name": "conv2d_1014/kernel", "shape": [7, 1, 192, 192], "dtype": "float32"}, {"name": "conv2d_1015/kernel", "shape": [3, 3, 192, 192], "dtype": "float32"}, {"name": "conv2d_1016/kernel", "shape": [1, 1, 1280, 320], "dtype": "float32"}, {"name": "conv2d_1017/kernel", "shape": [1, 1, 1280, 384], "dtype": "float32"}, {"name": "conv2d_1018/kernel", "shape": [1, 3, 384, 384], "dtype": "float32"}, {"name": "conv2d_1019/kernel", "shape": [3, 1, 384, 384], "dtype": "float32"}, {"name": "conv2d_1020/kernel", "shape": [1, 1, 1280, 448], "dtype": "float32"}, {"name": "conv2d_1021/kernel", "shape": [3, 3, 448, 384], "dtype": "float32"}, {"name": "conv2d_1022/kernel", "shape": [1, 3, 384, 384], "dtype": "float32"}, {"name": "conv2d_1023/kernel", "shape": [3, 1, 384, 384], "dtype": "float32"}, {"name": "conv2d_1024/kernel", "shape": [1, 1, 1280, 192], "dtype": "float32"}, {"name": "conv2d_1025/kernel", "shape": [1, 1, 2048, 320], "dtype": "float32"}, {"name": "conv2d_1026/kernel", "shape": [1, 1, 2048, 384], "dtype": "float32"}, {"name": "conv2d_1027/kernel", "shape": [1, 3, 384, 384], "dtype": "float32"}, {"name": "conv2d_1028/kernel", "shape": [3, 1, 384, 384], "dtype": "float32"}, {"name": "conv2d_1029/kernel", "shape": [1, 1, 2048, 448], "dtype": "float32"}, {"name": "conv2d_1030/kernel", "shape": [3, 3, 448, 384], "dtype": "float32"}, {"name": "conv2d_1031/kernel", "shape": [1, 3, 384, 384], "dtype": "float32"}, {"name": "conv2d_1032/kernel", "shape": [3, 1, 384, 384], "dtype": "float32"}, {"name": "conv2d_1033/kernel", "shape": [1, 1, 2048, 192], "dtype": "float32"}, {"name": "conv2d_940/kernel", "shape": [3, 3, 3, 32], "dtype": "float32"}, {"name": "conv2d_941/kernel", "shape": [3, 3, 32, 32], "dtype": "float32"}, {"name": "conv2d_942/kernel", "shape": [3, 3, 32, 64], "dtype": "float32"}, {"name": "conv2d_943/kernel", "shape": [1, 1, 64, 80], "dtype": "float32"}, {"name": "conv2d_944/kernel", "shape": [3, 3, 80, 192], "dtype": "float32"}, {"name": "conv2d_945/kernel", "shape": [1, 1, 192, 64], "dtype": "float32"}, {"name": "conv2d_946/kernel", "shape": [1, 1, 192, 48], "dtype": "float32"}, {"name": "conv2d_947/kernel", "shape": [5, 5, 48, 64], "dtype": "float32"}, {"name": "conv2d_948/kernel", "shape": [1, 1, 192, 64], "dtype": "float32"}, {"name": "conv2d_949/kernel", "shape": [3, 3, 64, 96], "dtype": "float32"}, {"name": "conv2d_950/kernel", "shape": [3, 3, 96, 96], "dtype": "float32"}, {"name": "conv2d_951/kernel", "shape": [1, 1, 192, 32], "dtype": "float32"}, {"name": "conv2d_952/kernel", "shape": [1, 1, 256, 64], "dtype": "float32"}, {"name": "conv2d_953/kernel", "shape": [1, 1, 256, 48], "dtype": "float32"}, {"name": "conv2d_954/kernel", "shape": [5, 5, 48, 64], "dtype": "float32"}, {"name": "conv2d_955/kernel", "shape": [1, 1, 256, 64], "dtype": "float32"}, {"name": "conv2d_956/kernel", "shape": [3, 3, 64, 96], "dtype": "float32"}, {"name": "conv2d_957/kernel", "shape": [3, 3, 96, 96], "dtype": "float32"}, {"name": "conv2d_958/kernel", "shape": [1, 1, 256, 64], "dtype": "float32"}, {"name": "conv2d_959/kernel", "shape": [1, 1, 288, 64], "dtype": "float32"}, {"name": "conv2d_960/kernel", "shape": [1, 1, 288, 48], "dtype": "float32"}, {"name": "conv2d_961/kernel", "shape": [5, 5, 48, 64], "dtype": "float32"}, {"name": "conv2d_962/kernel", "shape": [1, 1, 288, 64], "dtype": "float32"}, {"name": "conv2d_963/kernel", "shape": [3, 3, 64, 96], "dtype": "float32"}, {"name": "conv2d_964/kernel", "shape": [3, 3, 96, 96], "dtype": "float32"}, {"name": "conv2d_965/kernel", "shape": [1, 1, 288, 64], "dtype": "float32"}, {"name": "conv2d_966/kernel", "shape": [3, 3, 288, 384], "dtype": "float32"}, {"name": "conv2d_967/kernel", "shape": [1, 1, 288, 64], "dtype": "float32"}, {"name": "conv2d_968/kernel", "shape": [3, 3, 64, 96], "dtype": "float32"}, {"name": "conv2d_969/kernel", "shape": [3, 3, 96, 96], "dtype": "float32"}, {"name": "conv2d_970/kernel", "shape": [1, 1, 768, 192], "dtype": "float32"}, {"name": "conv2d_971/kernel", "shape": [1, 1, 768, 128], "dtype": "float32"}, {"name": "conv2d_972/kernel", "shape": [1, 7, 128, 128], "dtype": "float32"}, {"name": "conv2d_973/kernel", "shape": [7, 1, 128, 192], "dtype": "float32"}, {"name": "conv2d_974/kernel", "shape": [1, 1, 768, 128], "dtype": "float32"}, {"name": "conv2d_975/kernel", "shape": [7, 1, 128, 128], "dtype": "float32"}, {"name": "conv2d_976/kernel", "shape": [1, 7, 128, 128], "dtype": "float32"}, {"name": "conv2d_977/kernel", "shape": [7, 1, 128, 128], "dtype": "float32"}, {"name": "conv2d_978/kernel", "shape": [1, 7, 128, 192], "dtype": "float32"}, {"name": "conv2d_979/kernel", "shape": [1, 1, 768, 192], "dtype": "float32"}, {"name": "conv2d_980/kernel", "shape": [1, 1, 768, 192], "dtype": "float32"}, {"name": "conv2d_981/kernel", "shape": [1, 1, 768, 160], "dtype": "float32"}, {"name": "conv2d_982/kernel", "shape": [1, 7, 160, 160], "dtype": "float32"}, {"name": "conv2d_983/kernel", "shape": [7, 1, 160, 192], "dtype": "float32"}, {"name": "conv2d_984/kernel", "shape": [1, 1, 768, 160], "dtype": "float32"}, {"name": "conv2d_985/kernel", "shape": [7, 1, 160, 160], "dtype": "float32"}, {"name": "conv2d_986/kernel", "shape": [1, 7, 160, 160], "dtype": "float32"}, {"name": "conv2d_987/kernel", "shape": [7, 1, 160, 160], "dtype": "float32"}, {"name": "conv2d_988/kernel", "shape": [1, 7, 160, 192], "dtype": "float32"}, {"name": "conv2d_989/kernel", "shape": [1, 1, 768, 192], "dtype": "float32"}, {"name": "conv2d_990/kernel", "shape": [1, 1, 768, 192], "dtype": "float32"}, {"name": "conv2d_991/kernel", "shape": [1, 1, 768, 160], "dtype": "float32"}, {"name": "conv2d_992/kernel", "shape": [1, 7, 160, 160], "dtype": "float32"}, {"name": "conv2d_993/kernel", "shape": [7, 1, 160, 192], "dtype": "float32"}, {"name": "conv2d_994/kernel", "shape": [1, 1, 768, 160], "dtype": "float32"}, {"name": "conv2d_995/kernel", "shape": [7, 1, 160, 160], "dtype": "float32"}, {"name": "conv2d_996/kernel", "shape": [1, 7, 160, 160], "dtype": "float32"}, {"name": "conv2d_997/kernel", "shape": [7, 1, 160, 160], "dtype": "float32"}, {"name": "conv2d_998/kernel", "shape": [1, 7, 160, 192], "dtype": "float32"}, {"name": "conv2d_999/kernel", "shape": [1, 1, 768, 192], "dtype": "float32"}, {"name": "dense_20/kernel", "shape": [2048, 128], "dtype": "float32"}, {"name": "dense_20/bias", "shape": [128], "dtype": "float32"}, {"name": "dense_21/kernel", "shape": [128, 101], "dtype": "float32"}, {"name": "dense_21/bias", "shape": [101], "dtype": "float32"}]}]}